models/daily/lstm/onnx/lstm_daily.onnx (onnx, 479443 bytes, 10 tensors)

fc1.weight f4 [32, 64]
0	0xbe869cc6	-0.26291484
1	0xbd0d5995	-0.03450926
2	0x3d62ce6b	0.055372637
3	0x3c0b37b0	0.008497164
4	0x3d5694eb	0.052388113
5	0x3d85e79e	0.06538318
6	0x3e1f5ab7	0.15561949
7	0xbcfb278a	-0.030658502
8	0xbddf98e7	-0.10917836
9	0x3b199d7c	0.0023439815
10	0xbe9ae229	-0.30250672
11	0x3dcdbcf4	0.100458056
12	0xbc747298	-0.014919899
13	0xbe4b59e4	-0.1985851
14	0xbe2ad801	-0.16683961
15	0xbe221bbe	-0.15830895
16	0xbe023437	-0.12715231
17	0x3e56434a	0.20924106
18	0x3e3e801b	0.18603556
19	0xbe65aa8c	-0.2242834
20	0xbcd4c3c0	-0.025972247
21	0xbe08bc7f	-0.13353156
22	0x3d85691f	0.06514191
23	0xbe4906d1	-0.19631507
24	0x3d96834a	0.0734926
25	0xbe006208	-0.12537396
26	0x3e06f688	0.13179982
27	0x3df06bbb	0.11739298
28	0x3de62193	0.112368725
29	0x3cfde02c	0.030990683
30	0x3decd6f8	0.115644395
31	0x3d04c37a	0.032412983
32	0xbd94c622	-0.07264353
33	0x3e0e11f2	0.13874033
34	0x3e3832f9	0.17988195
35	0x3e8212fe	0.25405115
36	0xbdf38626	-0.11890821
37	0x3e58d41c	0.21174663
38	0xbe22a202	-0.15882114
39	0xbe247711	-0.16061045
40	0xbdab672a	-0.08369286
41	0x3d8ea55d	0.06965134
42	0xbdfd6bcf	-0.123740785
43	0xbd77cbc3	-0.060497057
44	0xbe09ef1f	-0.13470124
45	0xbedb7372	-0.42861515
46	0xbe2417b4	-0.16024667
47	0xbc56ca85	-0.013109808
48	0xbdde89d1	-0.1086613
49	0x3e93b26f	0.28847072
50	0x3d6b077d	0.05738019
51	0x3dc434d4	0.09580389
52	0x3e280dd7	0.1641153
53	0xbdd29f4d	-0.102842905
54	0x3d81f457	0.06345432
55	0xbe0bb500	-0.13643265
56	0xbe2e1aa2	-0.17002347
57	0xbe6b41f2	-0.22974375
58	0x3c8fca03	0.017552381
59	0xbd06fa47	-0.032953527
60	0xbcc7416b	-0.024323186
61	0xbe669021	-0.22515918
62	0x3d2e4b7e	0.042552464
63	0xbd7e841d	-0.06213771
64	0xbd264b2a	-0.040599026
65	0xbd262639	-0.040563796
66	0x3eb0d89d	0.34540263
67	0xbb625874	-0.0034537585
68	0xbcdf4e18	-0.027258918
69	0xba37f9f0	-0.00070181396
70	0xbe0ecb2b	-0.1394469
71	0x3c5da433	0.013527918
72	0x3e861dbe	0.26194566
73	0xbe648dcb	-0.22319715
74	0xbc9258cf	-0.017864613
75	0xbdd2816c	-0.102785915
76	0xbdb41479	-0.08792967
77	0x3d3edc43	0.046596777
78	0x3c4f5ec9	0.012656876
79	0xbd746f69	-0.05967656
80	0x3d994fb6	0.07485907
81	0xbd8760f8	-0.06610292
82	0x3d5e8976	0.05433031
83	0xbcfc047a	-0.030763853
84	0x3c72848b	0.0148021085
85	0x3d47fc19	0.048824403
86	0x3cbdce2f	0.023169605
87	0x3cf6ef9a	0.030143548
88	0xbd61f8cf	-0.055168923
89	0x3e042d16	0.12907824
90	0xbdacf635	-0.08445398
91	0xbd037df8	-0.032102555
92	0x3e259d50	0.16173291
93	0xbdab7b8d	-0.08373175
94	0x3daa8caa	0.08327611
95	0xbd9a29ff	-0.07527541
96	0x3dd9d12f	0.10635602
97	0xbc9cc17a	-0.019135226
98	0x3d8e7a61	0.06956936
99	0xbcea81f1	-0.028626414
100	0xbc81d358	-0.015847847
101	0xbd7095b1	-0.058736507
102	0xbd6fd1a8	-0.058549553
103	0xbdd9d56d	-0.10636411
104	0xbc643f52	-0.013931112
105	0xbdfd0747	-0.12354904
106	0xbdd60a59	-0.104511924
107	0x3e139fcf	0.14416431
108	0xbe8a27c2	-0.26983458
109	0xbb611bfb	-0.0034348953
110	0x3d901206	0.07034688
111	0xbe49e7a6	-0.19717273
112	0x3e5e0a16	0.21683535
113	0x3b4d524e	0.0031329575
114	0xbde369e4	-0.111041814
115	0xbd957f90	-0.07299721
116	0xbd86f4b9	-0.06589646
117	0x3c1c346f	0.0095339855
118	0xbcf6fc86	-0.03014971
119	0x3da170d7	0.078828506
120	0x3e6b3761	0.22970344
121	0x3cf2928b	0.029610893
122	0xbc364db7	-0.011126927
123	0xbe11c371	-0.14234711
124	0x3e5990ec	0.2124669
125	0xbe29cdea	-0.16582456
126	0xbdc15c56	-0.0944144
127	0x3c7c1eb3	0.015388179
128	0xbde71d11	-0.11284841
129	0xbe5aabe2	-0.2135463
130	0x3e1b2996	0.15152583
131	0xbe8bb1e7	-0.27284166
132	0x3d11882b	0.03553025
133	0xbee4285e	-0.44562048
134	0xbd1af83e	-0.0378344
135	0xbdf73ba1	-0.1207192
136	0xbd1d05b7	-0.03833553
137	0x3d2f2fb2	0.042770095
138	0xbe020dc9	-0.12700571
139	0x3de4b1ad	0.111667015
140	0xbb287ce6	-0.002570921
141	0xbe50fd32	-0.20409086
142	0xbd88aa33	-0.06673088
143	0xbe5ba526	-0.21449718
144	0xbd9ce726	-0.076612756
145	0xbe503a0c	-0.20334643
146	0x3e798df6	0.2437056
147	0xbd0f55b2	-0.034993835
148	0xbde83b27	-0.113394074
149	0x3e7add3e	0.2449846
150	0xbe76e081	-0.24109079
151	0x3eb69caf	0.35666415
152	0x3c7bffb8	0.015380792
153	0xbe9e75ba	-0.30949193
154	0x3c5e9a09	0.0135865295
155	0x3d23e9fb	0.040018063
156	0xbd803e0f	-0.06261837
157	0xbe64831b	-0.22315638
158	0xbd1defa3	-0.038558614
159	0xbdea9fcf	-0.11456262
160	0xbe27dffa	-0.16394034
161	0xbda715ce	-0.08158456
162	0x3d51d160	0.051225066
163	0xbb0e3332	-0.0021697995
164	0x3d9c0fa3	0.0762017
165	0x3e1c2be3	0.15251116
166	0xbea69749	-0.32537296
167	0x3da9da75	0.082936205
168	0x3df90fc0	0.12161207
169	0x3e1bab7d	0.15202136
170	0x3e890a20	0.26765537
171	0xbd4da30c	-0.05020432
172	0xbde2688c	-0.11055097
173	0xbe9ce73c	-0.30645168
174	0xbdf62381	-0.120184906
175	0xbbcf9b09	-0.0063356203
176	0x3dd15482	0.10221197
177	0xbe3d2e98	-0.18474805
178	0xbe058aee	-0.13041279
179	0x3cbe633c	0.023240678
180	0x3e932716	0.28740758
181	0x3d0191ed	0.031633306
182	0xbd820ea4	-0.06350449
183	0xbe5a4055	-0.21313603
184	0x3dc704a3	0.09717681
185	0xbcf60a08	-0.03003408
186	0x3ed3caba	0.41365606
187	0x3d00a582	0.03140784
188	0x3e5291d0	0.20563436
189	0xbe3d16c3	-0.18465714
190	0x3e2b16c4	0.16707903
191	0xbd6cf307	-0.057848956
192	0xbca6e632	-0.020373438
193	0x3e8dd93f	0.27704808
194	0xb8d6b68a	-0.00010238316
195	0xbddf99bf	-0.109179966
196	0xbd9bcfd9	-0.07608003
197	0xbddbeecc	-0.10738906
198	0xbd99f80c	-0.07518014
199	0xbd4728dd	-0.048622955
200	0xbe65cf3f	-0.2244234
201	0x3d093bcb	0.03350429
202	0x3e7d4e8d	0.24736996
203	0xbccaddcd	-0.024763966
204	0xbeee126e	-0.46498436
205	0x3d17eb6f	0.03708976
206	0x3e6f604f	0.23376583
207	0xbe2f12c9	-0.1709701
208	0xbcc57088	-0.02410151
209	0xbe2846e7	-0.16433297
210	0x3c27eb86	0.010249024
211	0x3e74c39c	0.23902744
212	0x3db5a223	0.08868816
213	0xbc79994a	-0.015234301
214	0xbea2d0ee	-0.31800026
215	0xbe3ccba4	-0.18437058
216	0xbd1653a0	-0.036700845
217	0xbdf7484e	-0.12074338
218	0x3ea12bad	0.31478634
219	0x3d79f4f9	0.06102464
220	0xbd4b32c3	-0.049608957
221	0x3d385585	0.045003433
222	0xbe2716b6	-0.16317257
223	0xbdcf072c	-0.1010879
224	0xbe3e33f9	-0.18574513
225	0xbdae6a6b	-0.08516391
226	0xbc13e438	-0.00902658
227	0x3cb21293	0.021737373
228	0xbe542ec1	-0.2072096
229	0x3e7206ae	0.2363536
230	0xbe3dc9ba	-0.18533984
231	0xbe7fbcd7	-0.2497438
232	0xbdcebda4	-0.10094765
233	0x3e0c350d	0.13692112
234	0x3c84ca6f	0.01620981
235	0x3d8888e3	0.06666734
236	0x3b4402c4	0.0029908875
237	0x3e035c09	0.12828077
238	0x3ca99214	0.020699538
239	0xbe94510d	-0.28968087
240	0xbea40a52	-0.32039124
241	0xbc0bd03d	-0.008533535
242	0xbec93e3f	-0.39305303
243	0xbe5df498	-0.21675336
244	0x3c9eb20a	0.019372005
245	0xbe400936	-0.18753514
246	0x3e2f8c6f	0.17143415
247	0x3e1ec6de	0.1550555
248	0x3c42e773	0.011896002
249	0x3b859d07	0.004077557
250	0x3d9b636f	0.07587325
251	0xbe83d569	-0.25748757
252	0x3d9abdc6	0.07555728
253	0xbd1385e2	-0.036016352
254	0x3cefa0b3	0.029251432
255	0xbe682595	-0.22670586

fc1.bias f4 [32]
0	0xbd8b8457	-0.06812351
1	0xbb777379	-0.0037758036
2	0xbd384f34	-0.04499741
3	0xbe80b798	-0.2514007
4	0xbcd8cc7e	-0.026464697
5	0xbdc738e1	-0.09727646
6	0xbe2eb4b0	-0.17061114
7	0xbd490f5d	-0.049086917
8	0xbd74a2fc	-0.059725747
9	0xbae5da83	-0.0017536435
10	0xbd4dc035	-0.05023213
11	0x3d5ef676	0.054434262
12	0xbc879df4	-0.01655481
13	0x3c1d8cb3	0.009616065
14	0xbd72b1d4	-0.05925162
15	0xbe5204d5	-0.20509656
16	0xbe973c30	-0.29538107
17	0xbdcdebf1	-0.10054768
18	0xbd75cdcb	-0.060010713
19	0xbdf1bc9f	-0.11803555
20	0xbdafdc77	-0.08586972
21	0x3cd0011d	0.025391156
22	0x3d794d96	0.060865007
23	0x3ca5a0f9	0.02021836
24	0xbd323388	-0.043506175
25	0xbc141d23	-0.00904015
26	0xbd98092d	-0.07423625
27	0x39b8a482	0.00035217783
28	0xbe657a84	-0.22410017
29	0xbe7eda5c	-0.24887985
30	0x3d24339d	0.040088285
31	0xbc4b7016	-0.01241686

fc2.weight f4 [7, 32]
0	0xbe21ac56	-0.15788397
1	0xbdb507ed	-0.08839402
2	0x3d99a3bf	0.07501935
3	0xbd99a550	-0.07502234
4	0x3e0c0159	0.13672389
5	0x3d864570	0.06556213
6	0x3ee7a689	0.45244244
7	0xbe0fe139	-0.1405076
8	0x3e1709c8	0.14749825
9	0x3d43bcce	0.04778748
10	0x3da43b86	0.08019166
11	0x3daed937	0.08537524
12	0xbdab4731	-0.08363188
13	0x3dac74f2	0.08420743
14	0x3d80dada	0.062917426
15	0xbb4fc809	-0.0031704924
16	0xbe73c8f4	-0.23807126
17	0x3d5287ab	0.051398914
18	0x3ce4ff2c	0.027953707
19	0x3da41056	0.08010928
20	0xbe4b1dfb	-0.19835655
21	0x3db328f3	0.08748045
22	0x3da0747b	0.07834717
23	0xbdaac5f4	-0.08338538
24	0xbe0cf26f	-0.13764356
25	0x3c850b99	0.016240882
26	0xbdfee8ec	-0.1244677
27	0x3e6545f2	0.22389963
28	0xbe020e63	-0.127008
29	0x3ea4cc16	0.32186955
30	0xbcd1c993	-0.025608813
31	0xbe011f79	-0.12609662
32	0xbe48a8e1	-0.19595672
33	0xbdd3a04a	-0.10333307
34	0xbe102e73	-0.14080219
35	0xbe235c10	-0.15953088
36	0x3ce8de34	0.028426267
37	0x3db4d7bf	0.08830213
38	0x3dd89795	0.10575787
39	0xbdf5a45d	-0.119942404
40	0x3d9a7b65	0.07543067
41	0x3d865908	0.0655995
42	0x3d7a966e	0.061178617
43	0x3e0876ff	0.13326643
44	0xbda4a516	-0.080393
45	0x3d8069fd	0.06270216
46	0x3dd735ca	0.10508306
47	0x3ed8f4d2	0.42374283
48	0xbea0c797	-0.31402275
49	0x3d9c541f	0.07633232
50	0x3e20a65a	0.15688458
51	0x3db50261	0.08838344
52	0xbce11698	-0.027476594
53	0x3d907777	0.07054036
54	0x3dabef63	0.08395269
55	0xbdd2d8d8	-0.10295266
56	0xbdc96d3c	-0.09835288
57	0x3da63a9a	0.08116646
58	0xbdda2d94	-0.106532246
59	0x3e085081	0.1331196
60	0xbca51895	-0.020153323
61	0xbdbaf54f	-0.0912882
62	0x3e485bab	0.19566219
63	0xbe1f0340	-0.15528584
64	0x3ccc3b01	0.024930479
65	0xbe1605f6	-0.14650711
66	0xbd8926a5	-0.06696824
67	0xbe24bc49	-0.1608745
68	0xbe033308	-0.12812436
69	0x3d53aa58	0.051676124
70	0xbd8bd95b	-0.06828567
71	0xbd6fc754	-0.058539703
72	0x3d450f2f	0.048110183
73	0x3da78dc8	0.081813395
74	0x3dbf176d	0.0933064
75	0x3d8b16c3	0.06791451
76	0xbd387b1b	-0.045039278
77	0x3d279e5e	0.040922515
78	0xbd4e10e2	-0.05030907
79	0xbe84542f	-0.25845477
80	0xbe673ab2	-0.22580984
81	0x3ded38fc	0.115831345
82	0x3e5a7762	0.21334603
83	0x3deb64af	0.11493813
84	0x3e6b8671	0.23000504
85	0x3d9d91a8	0.07693797
86	0x3db3500a	0.087555006
87	0xbe0a7045	-0.1351939
88	0xbddd6460	-0.10810161
89	0x3d9af0bf	0.0756545
90	0xbdeffab3	-0.11717739
91	0x3dd90dca	0.10598333
92	0x3e4986dd	0.19680353
93	0xbe9ee29b	-0.3103226
94	0x3d9eea12	0.07759489
95	0xbe0f2de6	-0.13982353
96	0x3e153e19	0.1457447
97	0xbe035eef	-0.12829183
98	0x3e5a0b3d	0.2129335
99	0xbd298fe3	-0.041396987
100	0xbd87830f	-0.06616794
101	0x3d6be1c9	0.057588372
102	0xbe0f65af	-0.14003633
103	0xbdda3bf2	-0.10655965
104	0x3dd90cee	0.10598169
105	0x3db3b515	0.08774773
106	0x3d832749	0.064039774
107	0xbe06a3dc	-0.13148445
108	0xbdc91034	-0.098175436
109	0x3d8795fa	0.06620403
110	0xbe1c934a	-0.15290561
111	0xbdd33f09	-0.103147574
112	0xbe91514e	-0.28382343
113	0x3e562af4	0.20914823
114	0xbc634ea8	-0.013873734
115	0x3dac5745	0.08415083
116	0x3e0ab2da	0.13544789
117	0x3d917106	0.07101636
118	0x3d6da102	0.058014877
119	0xbdf8854f	-0.121348016
120	0xbda2e295	-0.07953373
121	0x3e03afd2	0.12860039
122	0xbe174475	-0.14772208
123	0x3d9cde4d	0.07659588
124	0x3e5f4a29	0.21805634
125	0x3c480211	0.012207524
126	0x3da24ad6	0.0792443
127	0xbdbab3be	-0.09116314
128	0x3e36b458	0.17842233
129	0xbdf02744	-0.11726239
130	0x3dadf227	0.084934525
131	0x3d64b4e0	0.05583656
132	0x3dc85e93	0.097836636
133	0x3d8f2f74	0.06991473
134	0xbe2f8dbd	-0.17143913
135	0xbe011650	-0.12606168
136	0x3e3586a6	0.17727146
137	0x3dc0bc1e	0.094108805
138	0x3c77d73f	0.015127002
139	0xbe578edf	-0.21050595
140	0xbe1070f6	-0.14105591
141	0x3d7d90bc	0.061905608
142	0x3d1c1ff3	0.038116407
143	0x3e82938b	0.2550319
144	0xbe333573	-0.17500858
145	0xbc1eb394	-0.009686369
146	0xbdd2b718	-0.102888286
147	0x3d2c2147	0.042023923
148	0x3e000910	0.12503457
149	0x3d666e79	0.0562577
150	0x3ced842b	0.028993687
151	0xbda74b5e	-0.08168672
152	0xbdbcef49	-0.092253275
153	0x3e4564c9	0.19276728
154	0xbe1f119e	-0.15534064
155	0x3d28f0d1	0.041245285
156	0xbd3e49ef	-0.046457227
157	0xbe25b448	-0.16182053
158	0x3d8729ca	0.065997675
159	0xbdba8d83	-0.091090225
160	0x3e67f8c9	0.22653498
161	0xbdc2a255	-0.09503619
162	0x3dca2d84	0.09871963
163	0x3e636321	0.22205783
164	0x3ce9cbd0	0.028539568
165	0x3dfcaa19	0.12337131
166	0xbd02bb4a	-0.031916894
167	0xbddeb9a2	-0.108752504
168	0x3d48937e	0.048968785
169	0x3db4905b	0.08816596
170	0x3d29e724	0.0414802
171	0xbd2e0339	-0.042483542
172	0xbe376883	-0.17910962
173	0x3d2f2e6a	0.042768873
174	0x3e79724d	0.24360009
175	0xbe2e56d1	-0.17025305
176	0xbd16533a	-0.036700465
177	0xbe546885	-0.20742996
178	0x3d353c75	0.04424711
179	0x3d97372b	0.07383569
180	0x3d98463e	0.07435273
181	0x3dadee8c	0.08492765
182	0x3d42b603	0.04753686
183	0xbdc1c189	-0.09460742
184	0xbdd4ce56	-0.10390918
185	0x3e1c3fb1	0.15258671
186	0xbe04bcf4	-0.12962705
187	0xbcc6005b	-0.024170091
188	0xbe651ada	-0.22373524
189	0xbe1c736e	-0.15278408
190	0xba5781f0	-0.00082209613
191	0xbda72d95	-0.08162991
192	0x3e1cbac0	0.15305614
193	0xbd8171e6	-0.063205525
194	0x3dd5a5e0	0.10432029
195	0x3ebc4728	0.36773038
196	0x3d9b19cb	0.07573279
197	0x3e1bae9c	0.15203327
198	0xbe2f6f28	-0.17132246
199	0xbdae24fe	-0.085031494
200	0x3bb60f0a	0.005555992
201	0x3d91f144	0.07126096
202	0x3e3eded8	0.18639696
203	0x3d465f79	0.048430894
204	0xbe365e46	-0.178094
205	0x3d370a65	0.044687647
206	0x3e340fb1	0.17584111
207	0xbe865596	-0.26237172
208	0xbde1840e	-0.110115156
209	0xbd5a6cc2	-0.053326376
210	0x3e283949	0.16428103
211	0x3da88649	0.08228738
212	0xbdb9935d	-0.090613104
213	0x3d9c21e7	0.07623654
214	0x3d58cb73	0.0529284
215	0xbdf2902c	-0.11843905
216	0xbe184a02	-0.14871982
217	0x3cfb5f03	0.030684954
218	0xbe0727d6	-0.1319879
219	0xbd616ca0	-0.055035233
220	0xbe7b81ee	-0.24561283
221	0x3e491b8b	0.19639413
222	0xbdc920f1	-0.09820736
223	0xbd89a122	-0.06720187

fc2.bias f4 [7]
0	0x3f1195f9	0.56869465
1	0x3f10662d	0.5640591
2	0x3f11c6f1	0.56944185
3	0x3f133c94	0.5751431
4	0x3f1761af	0.5913343
5	0x3f15ec80	0.58563995
6	0x3f158d57	0.5841879

onnx::LSTM_179 f4 [1, 512, 1]
0	0xbe17f272	-0.1483858
1	0xbe3bd8f8	-0.18344486
2	0xbbfe8a57	-0.0077679562
3	0xbe40ad89	-0.18816198
4	0x3eff746e	0.49893516
5	0xbda7c002	-0.081909195
6	0x3d5eb387	0.05437043
7	0xbdb7890f	-0.08961689
8	0x3dfa79d7	0.1223027
9	0x3ec0fb62	0.3769179
10	0x3db1650d	0.08661852
11	0x3eceb148	0.4036963
12	0xbe7a2619	-0.24428596
13	0xbcf00d7b	-0.029303303
14	0xbd2add0a	-0.041714706
15	0x3db6d7e8	0.089278996
16	0x3e4ec0f2	0.2019079
17	0x3e2637a5	0.16232164
18	0x3d8754c8	0.066079676
19	0xbdb7c7f0	-0.08973682
20	0xbe9f2bac	-0.31088006
21	0x3e07df55	0.13268788
22	0x3e8f0b45	0.27938285
23	0x3d17c777	0.03705546
24	0x3db1291d	0.0865042
25	0x3c94fbc1	0.018186452
26	0x3e9fe37b	0.3122824
27	0x3c1f1025	0.009708439
28	0x3dc12202	0.094303146
29	0x3ebf4dce	0.37364048
30	0x3e47d6eb	0.19515578
31	0x3d254fa9	0.040359173
32	0xbdbfb07b	-0.09359833
33	0xbe88f617	-0.26750252
34	0xbdb176a3	-0.08665206
35	0xbdf6e404	-0.12055209
36	0x3df290bd	0.11844013
37	0xbabb7b88	-0.0014303783
38	0xbe30802f	-0.17236398
39	0x3e423e5e	0.18969104
40	0x3d131194	0.035905436
41	0xbe352042	-0.17688087
42	0x3e3db006	0.18524179
43	0x3d7261f9	0.059175465
44	0xbe9ee26f	-0.3103213
45	0xbe806430	-0.25076437
46	0x3e0645ff	0.13112639
47	0x3ee3c044	0.44482625
48	0xbde7758f	-0.113017194
49	0x3e506995	0.20352776
50	0x3eab2a35	0.3343064
51	0xbdc13f08	-0.094358504
52	0xbd05cf0f	-0.03266817
53	0x3d459fa1	0.048247937
54	0x3e87e1a6	0.26539344
55	0x3d9c7a4a	0.07640512
56	0xbd40f9fd	-0.047113407
57	0x3e3d7de1	0.1850505
58	0x3ecd73fd	0.40127555
59	0xbec5e0f4	-0.38648188
60	0x3e8e65b4	0.27811968
61	0xbc863040	-0.01638043
62	0xbec10345	-0.37697807
63	0xbe832d98	-0.25620723
64	0x3ed49879	0.41522577
65	0xbc488db3	-0.012240815
66	0xbe356d56	-0.1771749
67	0x3e822ff8	0.25427222
68	0xbdfaf08e	-0.122529134
69	0x3da9989d	0.08281062
70	0x3eb212dd	0.34780017
71	0x3ede8584	0.4346124
72	0x3f0b5bdd	0.5443705
73	0xbe23f71a	-0.1601223
74	0x3de22061	0.11041332
75	0x3ef76c0d	0.48324624
76	0xbe988f17	-0.2979667
77	0x3e958428	0.2920239
78	0x3e436633	0.19081955
79	0x3ee2a3da	0.44265634
80	0x3e9cd9b4	0.30634844
81	0xbe297985	-0.16550262
82	0x3e0842dd	0.13306756
83	0xbdd63227	-0.104587846
84	0x3e75a82a	0.23989931
85	0xbe453e50	-0.19262052
86	0x3e9132e4	0.2835914
87	0xbeac0b50	-0.3360238
88	0x3e3a8a26	0.18216762
89	0xbe50c75e	-0.20388553
90	0x3e9ca8d7	0.30597565
91	0xbe346ed6	-0.17620406
92	0xbd1a6f14	-0.03770359
93	0x3e2b9166	0.16754684
94	0x3d9a7713	0.07542243
95	0x3d978486	0.07398324
96	0x3f0a443a	0.54010355
97	0xbe85cabf	-0.26131245
98	0xbdcb7996	-0.099353
99	0xbe0b33da	-0.13593999
100	0x3c784d0d	0.015155089
101	0x3df40fdf	0.1191709
102	0xbdafc7fa	-0.085830644
103	0x3d8c85a9	0.06861431
104	0x3c9044ba	0.017610896
105	0xbe6b9a27	-0.23008023
106	0x3ec00ff0	0.3751216
107	0xbe31c996	-0.17362055
108	0xbe3848c6	-0.17996511
109	0x3ebd163c	0.36931026
110	0xbcf001e8	-0.029297784
111	0x3e9d12e7	0.30678484
112	0xbdce2ac5	-0.100667514
113	0xbe8dd590	-0.27701998
114	0x3ea2deb8	0.31810546
115	0x3e9e0bdb	0.3086842
116	0xbd92d0aa	-0.07168706
117	0xbe57c7ca	-0.21072307
118	0xbe8855ef	-0.26628062
119	0xbd42329c	-0.047411546
120	0x3dc0201f	0.093811266
121	0x3e45c7cc	0.19314498
122	0x3ec44c57	0.38339493
123	0x3eaf7f45	0.34276786
124	0xbd2ab6a2	-0.04167808
125	0xbd145ce8	-0.036221415
126	0xbddd2889	-0.10798747
127	0xbe5210c0	-0.20514202
128	0xbe35bfae	-0.17748901
129	0xbe3734c4	-0.17891222
130	0xbdb74684	-0.08948997
131	0xbe9fd4bd	-0.31216994
132	0x3f17fdea	0.5937182
133	0xbd785ae7	-0.060633566
134	0x3e0c1254	0.13678867
135	0xbda72a4a	-0.08162363
136	0x3e26082b	0.16214053
137	0x3f02cd8d	0.51094896
138	0x3e10732d	0.14106436
139	0x3ed2b81f	0.41156098
140	0xbeaf2de1	-0.3421469
141	0x3d2d6ade	0.042338245
142	0xbd225a2f	-0.039636787
143	0x3d94296f	0.07234465
144	0x3e0a084b	0.13479726
145	0x3ebae95c	0.36506164
146	0x3df4aa7f	0.11946582
147	0xbd5ee9d1	-0.054422203
148	0xbe63c8ee	-0.22244617
149	0x3e3b2624	0.18276268
150	0x3ec8fef7	0.39257023
151	0xbc37396e	-0.011183126
152	0x3df6cc19	0.12050647
153	0x3e2b9b03	0.16758351
154	0x3eb62526	0.35575217
155	0x3d516642	0.05112291
156	0x3e1a315f	0.15057896
157	0x3f158927	0.584124
158	0x3e58b958	0.21164453
159	0x3dd62a4a	0.10457285
160	0xbe3bb823	-0.18331961
161	0xbe734ce9	-0.23759808
162	0xbb85f018	-0.0040874593
163	0xbe495afe	-0.19663617
164	0x3e3c9463	0.1841598
165	0xbdacd112	-0.084383145
166	0xbe40224c	-0.18763083
167	0x3ea69cc0	0.32541466
168	0x3e0902e8	0.13380015
169	0xbdc3295b	-0.09529372
170	0x3e6679ef	0.22507451
171	0x3d51e433	0.05124302
172	0xbe7a7450	-0.24458432
173	0xbd87d1aa	-0.06631787
174	0x3e0753f2	0.13215616
175	0x3ee504ff	0.44730374
176	0xbe26d0a7	-0.16290532
177	0x3e8d450d	0.27591744
178	0x3ec702a8	0.38869214
179	0x3da2d1e9	0.079501934
180	0x3dc16c3e	0.09444474
181	0x3d17bc52	0.03704483
182	0x3e62eab1	0.2215984
183	0x3ddbe7f7	0.10737603
184	0xbe13ae50	-0.14421964
185	0x3e8864cd	0.26639405
186	0x3eb07c1d	0.3446969
187	0xbe68b311	-0.22724558
188	0x3eb8101f	0.359498
189	0xbd677f71	-0.056518022
190	0xbedcafa1	-0.43102744
191	0xbe42d36a	-0.1902596
192	0x3f04bd64	0.5185149
193	0xbdd7054d	-0.10499058
194	0xbe50106a	-0.20318761
195	0x3db76cde	0.08956312
196	0xbe30bbd8	-0.17259157
197	0x3e43da86	0.19126329
198	0x3eaba73e	0.33526033
199	0x3eec7809	0.4618533
200	0x3ef56f14	0.47936308
201	0x3d8203f5	0.06348411
202	0x3e3ce902	0.1844826
203	0x3efc6f25	0.49303547
204	0xbe969115	-0.29407564
205	0x3e8a8d3e	0.27060884
206	0x3e7cde83	0.24694256
207	0x3edd5ac2	0.43233305
208	0x3ed20983	0.41022882
209	0xbdf3902e	-0.118927345
210	0x3e02b0d0	0.12762761
211	0xbbdef1e0	-0.006803736
212	0x3ea48d00	0.32138824
213	0xbd65010f	-0.055909213
214	0x3eb4f667	0.3534424
215	0xbe0f350b	-0.13985078
216	0x3ea53713	0.3226858
217	0xbe70aed9	-0.23504199
218	0x3e952eff	0.29137418
219	0x3d40848d	0.04700141
220	0xbdb3f185	-0.087863006
221	0x3df5856f	0.11988341
222	0x3e16bac1	0.14719678
223	0x3e6de44a	0.23231617
224	0x3f1208f2	0.570449
225	0xbe83c12f	-0.25733325
226	0xbd84e146	-0.0648828
227	0x3d495206	0.04915049
228	0xbd1859e4	-0.0371951
229	0x3db98acc	0.090596765
230	0xbdcd9ce6	-0.100396916
231	0x3e43f051	0.19134642
232	0x3e16510b	0.14679353
233	0xbd4bbe7e	-0.049742214
234	0x3f551341	0.83232504
235	0xbcfe6b0f	-0.031056909
236	0xbd081681	-0.033224586
237	0x3efe9f49	0.497309
238	0xbdeca70a	-0.11555298
239	0x3e93ed4e	0.28891987
240	0xbd90853d	-0.07056663
241	0xbdd50d20	-0.10402894
242	0x3edc631b	0.4304436
243	0x3eca297a	0.3948477
244	0xbd828111	-0.06372274
245	0xbcc93aab	-0.024564108
246	0xbe06b5c8	-0.13155282
247	0x3e2a57ff	0.1663513
248	0x3e5029af	0.20328401
249	0x3e9d2def	0.30699107
250	0x3e93aff8	0.2884519
251	0x3ea7988c	0.32733572
252	0x3d0e57c1	0.034751657
253	0x3cc9276d	0.024554932
254	0x3d0e24cd	0.034703065
255	0xbe2e3a8d	-0.17014523

onnx::LSTM_180 f4 [1, 512, 128]
0	0xbce98360	-0.028505027
1	0xbdefa7be	-0.11701916
2	0xbbf1fafc	-0.007384656
3	0x39a0aaa4	0.00030644715
4	0x3db69e42	0.08916904
5	0xbd0b10a6	-0.033951424
6	0x3dc4b8fe	0.09605597
7	0x3d9baa0a	0.07600792
8	0xbce06e60	-0.02739638
9	0x3dd0c98f	0.10194694
10	0xbddccd28	-0.10781318
11	0x3c494012	0.012283342
12	0x3df31951	0.11870063
13	0xbcbe9122	-0.023262564
14	0xbd05cfc4	-0.032668844
15	0xbdf5c38b	-0.120001875
16	0xbc46b28f	-0.012127533
17	0x3cb5ea4c	0.022206448
18	0x3d07eafe	0.03318309
19	0x3cc27f0f	0.023742227
20	0xbca97116	-0.020683806
21	0xbd698ce8	-0.057019144
22	0x3e14e8c0	0.14541912
23	0x3c1e55f1	0.009664045
24	0xbd79d8b9	-0.0609977
25	0x3c67d2f4	0.014149416
26	0xbd98f598	-0.07468718
27	0x3cd3af0c	0.025840305
28	0xbdd28063	-0.10278394
29	0xbe00f560	-0.12593603
30	0x3ca3fd5a	0.020018268
31	0x3d547eaf	0.051878627
32	0x3e2ca1d0	0.16858602
33	0xbd8748f4	-0.066057116
34	0x3d0f0432	0.03491611
35	0x3e199b88	0.15000737
36	0x3cda4221	0.02664286
37	0x3c3c2419	0.011483216
38	0xbdadc35f	-0.0848453
39	0x3caee491	0.021349223
40	0xbd00906e	-0.03138774
41	0xbc9b18e3	-0.018932765
42	0xbcf8cd38	-0.030371293
43	0xbe3e3d4a	-0.18578067
44	0xbb38da37	-0.0028206238
45	0xbd2540fa	-0.04034517
46	0x3a9f4ebf	0.0012154205
47	0x3d825289	0.063633986
48	0x3db00ff4	0.08596793
49	0x3dd2e399	0.10297317
50	0xbd26264d	-0.04056387
51	0xbda4bb04	-0.08043483
52	0xbe17484d	-0.14773674
53	0xbdb8cc43	-0.09023335
54	0xbd8c21fc	-0.068424195
55	0xbc6cf45e	-0.014462559
56	0xbde08e90	-0.10964692
57	0xbdf316b3	-0.11869564
58	0x3d5b3cc6	0.053524755
59	0xbe182a99	-0.1486
60	0xbcb36721	-0.021899762
61	0x3e29fcc6	0.16600332
62	0xbd093d68	-0.033505827
63	0xbc300fe9	-0.010745981
64	0xbd307a30	-0.043085277
65	0x3d4ff526	0.0507709
66	0xba65bada	-0.00087635
67	0x3d22d722	0.039755948
68	0xbd6eaa63	-0.058267962
69	0xbd89e500	-0.067331314
70	0xbd0b30ec	-0.033982202
71	0x3e0c6c17	0.13713108
72	0xbd057a4a	-0.032587327
73	0xbcb50d82	-0.022101168
74	0xbd120a2b	-0.03565423
75	0xbbcd13c5	-0.00625846
76	0xbe0a3c07	-0.13499461
77	0xbd514126	-0.05108752
78	0x3e5eb12d	0.21747275
79	0x3daaae0b	0.08333977
80	0xbd0ace90	-0.0338884
81	0x3a0ad474	0.000529594
82	0xbdaffb12	-0.0859281
83	0xbdb54eab	-0.08852895
84	0xbd320bdc	-0.04346834
85	0xbd07e397	-0.03317603
86	0x3dca8f14	0.09890571
87	0x3dc2d3e3	0.095130704
88	0xbcd0ee6b	-0.025504312
89	0x3dc32fbd	0.0953059
90	0xbd84e3da	-0.06488772
91	0xbdd68bfc	-0.10475919
92	0x3d893b2f	0.067007415
93	0xbe2101e0	-0.15723372
94	0xbd2c8875	-0.042122323
95	0xbce77692	-0.02825478
96	0x3daa26bd	0.0830817
97	0x3c19edd4	0.009395082
98	0xbd12d42f	-0.035846885
99	0xbd882f62	-0.066496626
100	0x3c01fe31	0.007934139
101	0x3e15ca77	0.14628015
102	0xbd90fceb	-0.0707949
103	0xbccdca7b	-0.025120964
104	0x3dc381ef	0.09546267
105	0x3899fae6	7.342342e-05
106	0xbdfb97a3	-0.12284782
107	0x3d301879	0.04299209
108	0xbd93c3c8	-0.07215077
109	0xbdb7c4de	-0.08973096
110	0xbcef3399	-0.029199408
111	0xbdaa2580	-0.08307934
112	0x3d3ddac5	0.046351213
113	0xbd81d560	-0.06339526
114	0xbc2e2d21	-0.010630877
115	0x3d515b0a	0.051112212
116	0xbdb5f719	-0.08885021
117	0x3cc9e5d3	0.024645722
118	0xbe5d5b85	-0.21616943
119	0x3d3e4d26	0.046460293
120	0x3cb23478	0.021753535
121	0x3d966e60	0.07345271
122	0x3d554d8c	0.052075908
123	0xbe0ccfe4	-0.13751179
124	0xbe073e75	-0.13207419
125	0xbd62b937	-0.055352416
126	0xbe0d9151	-0.13824965
127	0xbd87effe	-0.06637572
128	0x3da4bbd8	0.08043641
129	0xbe0d7124	-0.13812691
130	0x3e2a3bd9	0.16624393
131	0x3dfebfd2	0.124389306
132	0x3d0b31ed	0.03398316
133	0xbd798e7c	-0.0609269
134	0x3e00f5b5	0.1259373
135	0xbcce067b	-0.025149575
136	0x3cee42ec	0.029084645
137	0xbd2e759d	-0.042592634
138	0x3e0093c2	0.12556365
139	0xbe68a848	-0.22720444
140	0x3ca63d5f	0.020292936
141	0xbd68cf3a	-0.05683825
142	0x3a79a680	0.00095234066
143	0x3db6af69	0.089201756
144	0x3d2da8e5	0.0423974
145	0x3e02d4cd	0.1277649
146	0x3e646e71	0.22307755
147	0x3db53656	0.088482544
148	0xbd47c943	-0.048775923
149	0x3db3fa2b	0.0878795
150	0xbddd49d5	-0.10805098
151	0xbcc333fd	-0.0238285
152	0xbcd1991b	-0.025585702
153	0xbceff2ec	-0.029290639
154	0x3e14db79	0.14536847
155	0xbe264aff	-0.16239546
156	0x3deb9ff5	0.11505119
157	0xbe7503a0	-0.23927164
158	0xbd8d4cbf	-0.06899404
159	0x3d8bfad9	0.06834955
160	0x3df34ec3	0.11880257
161	0x3d49c04d	0.049255658
162	0x3ccd5513	0.02506498
163	0x3d81ee7d	0.06344316
164	0xbe08cbe5	-0.1335903
165	0xbddcc4c0	-0.107797146
166	0xbdadfdb6	-0.08495657
167	0xbdf0e171	-0.117617495
168	0x3d4a28fc	0.049355492
169	0x3d1dceec	0.038527414
170	0xbe419f54	-0.18908435
171	0x3d2ab4b3	0.041676234
172	0xbc0b38b5	-0.008497407
173	0x3dc35ce9	0.095392056
174	0xbe3d33b7	-0.18476759
175	0xbe49380b	-0.19650285
176	0xbe1c5e89	-0.15270437
177	0x3d7469cf	0.05967122
178	0x3c2f4187	0.010696775
179	0x3df2696c	0.11836514
180	0x3e15b0ea	0.14618269
181	0x3e485f95	0.19567712
182	0x3dfa9064	0.122345716
183	0x3d7dfb57	0.062007274
184	0xbc394c72	-0.01130973
185	0x3de2874a	0.110609606
186	0x3dd376a2	0.10325362
187	0x3de33451	0.11093963
188	0x3e0e0393	0.13868551
189	0xbd1f2e90	-0.038862765
190	0x3d599506	0.053120635
191	0xbe687e9b	-0.22704546
192	0xbda4acfb	-0.08040806
193	0xbd4f74e6	-0.050648592
194	0x3d099a54	0.033594444
195	0xbd60b816	-0.054863058
196	0xbda8c376	-0.08240406
197	0xbc990ce4	-0.018682905
198	0xbde138b3	-0.10997143
199	0x3e0784f1	0.13234307
200	0xbc1a9ce5	-0.009436821
201	0xbd49e9aa	-0.049295105
202	0x3dc2b220	0.09506631
203	0x3e8de305	0.27712265
204	0x3d3b45b8	0.045720786
205	0xbe898873	-0.26861915
206	0xbd9c5168	-0.076327145
207	0xbdaf6cf6	-0.085657045
208	0xbe312cbd	-0.17302223
209	0x3e2fa4da	0.1715273
210	0x3ca07365	0.019586274
211	0x3c4aa792	0.012369053
212	0xbb03b4e5	-0.0020096835
213	0xbdd1d810	-0.10246289
214	0xbe112d7c	-0.14177507
215	0xbde49223	-0.11160686
216	0xbe58b53b	-0.21162884
217	0xbdae2ce7	-0.08504658
218	0x3dea1194	0.11429134
219	0xbe97e2ec	-0.29665315
220	0xbd86f23b	-0.065891705
221	0x3d9396c4	0.07206491
222	0xbce27d71	-0.027647706
223	0x3e262e9b	0.16228716
224	0x3d38ef98	0.04515037
225	0xbd1c2385	-0.03811981
226	0x3d8c1ced	0.06841455
227	0x3e059973	0.13046817
228	0x3e2bb97e	0.16769978
229	0xbcab8290	-0.02093628
230	0xbb4b14ae	-0.0030987668
231	0x3e621bfe	0.2208099
232	0xbe2b8191	-0.16748644
233	0xbdbb1ac3	-0.09135964
234	0x3dc29db9	0.095027395
235	0xbb820171	-0.003967457
236	0xbc6b2ec4	-0.0143544115
237	0x3d359d0f	0.044339236
238	0xbd7772a6	-0.06041207
239	0xbdcce51b	-0.10004636
240	0xbde0eb3b	-0.10982367
241	0xbbb8ec4d	-0.0056434036
242	0x3e323657	0.17403542
243	0x3d0553f5	0.03255077
244	0xbd4adca7	-0.049526837
245	0xbb40fbd3	-0.0029446974
246	0xbde515d7	-0.11185806
247	0x3c06408b	0.008194099
248	0xbd94af8f	-0.07260048
249	0xbdd85515	-0.10563103
250	0x3dd413ee	0.10355364
251	0xbe5b89bb	-0.21439259
252	0xbda80982	-0.082049385
253	0xbd5693f5	-0.052387197
254	0x3d6ceef3	0.057845067
255	0xbd9c8a57	-0.07643574

onnx::LSTM_181 f4 [1, 1024]
0	0xbe17959d	-0.14803167
1	0x3c830943	0.015995627
2	0xbd93bd7c	-0.07213876
3	0xbe2446c7	-0.16042624
4	0x3f1c253d	0.6099432
5	0x3e5840aa	0.21118417
6	0xbd63d9e0	-0.055627704
7	0x3e6ef26e	0.23334667
8	0x3d2708e6	0.04077997
9	0x3eb27518	0.3485496
10	0xbdc924f4	-0.098215014
11	0x3f0b9fdb	0.54540795
12	0xbe224e14	-0.15850097
13	0xbc5f668f	-0.013635292
14	0xbd218bc3	-0.039439928
15	0x3f05e5a2	0.52303517
16	0x3e40ba17	0.18820988
17	0x3e8c2ee3	0.27379522
18	0xbd56f83f	-0.05248284
19	0xbe1d60a9	-0.15368904
20	0x3e460b1a	0.19340172
21	0x3cf515cd	0.029917622
22	0x3d01fb35	0.03173371
23	0x3e0ae049	0.1356212
24	0xbd8c3073	-0.068451785
25	0xbcef41d6	-0.029206198
26	0x3e9a7fc1	0.30175593
27	0xbdf2896f	-0.1184262
28	0xbe4b2dbd	-0.19841667
29	0x3efd15d7	0.49430725
30	0x3e795d70	0.2435205
31	0x3de813d1	0.11331905
32	0x3e52f60c	0.20601672
33	0xbe57912c	-0.21051472
34	0x3e004827	0.12527524
35	0xbe6c70a0	-0.23089838
36	0x3e32c975	0.17459662
37	0xbce83df8	-0.028349862
38	0xbd0c7d43	-0.034299146
39	0x3f0494fe	0.51789844
40	0xbdb15982	-0.086596504
41	0xbe36bbf0	-0.1784513
42	0x3e329359	0.17439021
43	0x3cd0af60	0.02547425
44	0x3e3e0ba3	0.18559127
45	0xbccc046b	-0.02490445
46	0xbdee3c2f	-0.11632573
47	0x3f02c273	0.51077956
48	0xbd845cce	-0.064630136
49	0x3e957cdf	0.29196832
50	0x3ef9c274	0.48781168
51	0xbdc5acb2	-0.0965208
52	0xbd9cac7b	-0.076500855
53	0x3e0ce0a5	0.1375757
54	0x3ebebf1a	0.37255174
55	0x3dfe5d3e	0.12420128
56	0x3e7fed0a	0.24992767
57	0x3ed43189	0.41444042
58	0x3f012075	0.5044015
59	0xbe8bf7f7	-0.2733762
60	0x3f117d20	0.5683155
61	0xbe118649	-0.14211382
62	0xbe46d7b3	-0.1941822
63	0xbd905abc	-0.07048556
64	0x3ed3657a	0.41288358
65	0xbdd66c18	-0.10469836
66	0x3e1d7cdb	0.1537966
67	0x3f2345d5	0.6377843
68	0x3e032715	0.12807877
69	0x3e29c6d5	0.16579755
70	0x3ef9e4af	0.48807284
71	0x3e8a306b	0.26990065
72	0x3f0e1bc0	0.55511093
73	0xbe63f797	-0.22262417
74	0x3eea0670	0.45708036
75	0x3f075e30	0.52878094
76	0xbe154fed	-0.1458127
77	0x3ec3b9fd	0.38227835
78	0x3ecdd735	0.40203252
79	0x3f6686d4	0.9004948
80	0x3ea26d28	0.31723905
81	0xbd2d726c	-0.04234545
82	0x3e08f821	0.13375904
83	0x3e096415	0.13417085
84	0x3e0ea1a9	0.13928856
85	0xbdb3954f	-0.08768713
86	0x3e96807f	0.2939491
87	0xbe2cc02a	-0.1687018
88	0x3e8dd39f	0.27700517
89	0xbd4a2291	-0.04934937
90	0x3e9ba731	0.30400994
91	0xbdadf617	-0.084942035
92	0xbdd01bf3	-0.10161581
93	0x3e5b5be2	0.2142177
94	0xbd72aa90	-0.059244692
95	0x3eee655c	0.46561706
96	0x3f12a5d8	0.5728431
97	0xbe735232	-0.23761824
98	0x3e44db20	0.19224215
99	0x3e8dad16	0.27671117
100	0x3e8bcd09	0.27304867
101	0x3cc0e848	0.02354826
102	0xbe4bcdfc	-0.19902796
103	0x3e93b6b2	0.28850323
104	0x3a03e8c8	0.00050319405
105	0xbdcf43e1	-0.10120369
106	0x3cd30e76	0.025763731
107	0xbc660a31	-0.014040516
108	0xbd3f6678	-0.04672858
109	0x3edf8769	0.43657997
110	0xbaa540c5	-0.0012607804
111	0x3f09a49b	0.53766793
112	0xbd034441	-0.032047514
113	0xbd21459f	-0.039373036
114	0x3f0c9053	0.5490772
115	0x3e98dd27	0.29856226
116	0xbe0c7d45	-0.13719662
117	0xbe0b3a8f	-0.13596557
118	0x3e1c80a5	0.15283449
119	0x3d3975e0	0.04527843
120	0xbdb7febc	-0.089841336
121	0x3e8c6ff6	0.2742917
122	0x3f4071d6	0.751737
123	0x3f1e8e1d	0.619356
124	0x3d79898e	0.060922198
125	0x3e3aa6bf	0.18227671
126	0xbda46aaf	-0.08028161
127	0x3d52fd0b	0.05151085
128	0xbe23f125	-0.16009958
129	0xbd9db199	-0.0769989
130	0xbb497f4b	-0.0030746039
131	0xbe02dc76	-0.12779412
132	0x3f3405d5	0.703214
133	0x3e0be0d6	0.13659987
134	0x3d186f6f	0.037215646
135	0x3dee3e34	0.11632958
136	0x3c69c301	0.014267684
137	0x3ed5495c	0.4165753
138	0xbd3fd0d9	-0.046830032
139	0x3f0ad548	0.5423169
140	0xbe80691d	-0.25080195
141	0x3dabfd7b	0.08397957
142	0xbd0f1f1a	-0.03494177
143	0x3f21dbb7	0.63225883
144	0x3dc16ff6	0.09445183
145	0x3e8365bc	0.25663555
146	0x3cbc078b	0.022952816
147	0xbc98418a	-0.018585939
148	0x3e5d45fd	0.2160873
149	0x3e16bfcc	0.14721602
150	0x3e5e5ce0	0.21715117
151	0x3e2c7edd	0.1684527
152	0xbd8c154f	-0.06840002
153	0x3de902ba	0.11377473
154	0x3ec96fd9	0.39343145
155	0xbd753809	-0.059867892
156	0xbe529459	-0.20564403
157	0x3f2a2aa3	0.6647131
158	0x3e7b0ae9	0.2451588
159	0x3e34dca8	0.17662299
160	0x3e3ffad6	0.1874803
161	0xbe7b133e	-0.24519059
162	0x3dbeb2bd	0.09311435
163	0xbe72fabf	-0.23728465
164	0x3e53f5fd	0.20699306
165	0x3c99ed0d	0.018789792
166	0xbe25b7ce	-0.16183397
167	0x3f0aae03	0.5417177
168	0xbe881156	-0.26575726
169	0xbe93d6ce	-0.2887482
170	0x3e2c1594	0.16805106
171	0xbd60bda0	-0.05486834
172	0x3ddc8d25	0.10769109
173	0xbd6a4237	-0.057192054
174	0xbe3fc592	-0.18727711
175	0x3ed59d18	0.41721416
176	0xbd99873e	-0.074964985
177	0x3ed69203	0.41908273
178	0x3eebb684	0.46037686
179	0xbdc49aeb	-0.09599861
180	0xbd5757e4	-0.052574053
181	0x3e3eac9a	0.1862053
182	0x3ec9dfcb	0.39428553
183	0x3d6dce94	0.058058336
184	0x3e542f61	0.20721199
185	0x3f00f4fa	0.50373805
186	0x3f180222	0.59378254
187	0xbea42a99	-0.3206375
188	0x3f1bb850	0.60828114
189	0xbced51cb	-0.028969666
190	0xbe8b9658	-0.2726314
191	0xbc9af269	-0.018914418
192	0x3e9f7378	0.31142783
193	0xbe3dba33	-0.1852806
194	0x3d5c3287	0.053759124
195	0x3f20c84c	0.6280563
196	0x3e38499d	0.17996831
197	0x3e8b589a	0.27216035
198	0x3ef0028f	0.46876952
199	0x3ee96074	0.455814
200	0x3f05c145	0.5224803
201	0xbe25b7ec	-0.16183442
202	0x3ebca6b8	0.36845946
203	0x3f18b9ff	0.5965881
204	0xbe487bb6	-0.19578442
205	0x3eccc4dc	0.39993942
206	0x3f028c2e	0.5099515
207	0x3f5696be	0.83823764
208	0x3e8ddb71	0.27706483
209	0xbdef9cbf	-0.11699819
210	0x3e2b8633	0.16750412
211	0x3c121f8d	0.008918655
212	0x3ddb55b3	0.10709705
213	0xbdb97506	-0.090555236
214	0x3e8e542c	0.27798593
215	0xbe2afcfd	-0.1669807
216	0x3ecfc83d	0.40582457
217	0xbd854b8c	-0.0650855
218	0x3e6e3ae4	0.23264652
219	0xbc24f75f	-0.0100687435
220	0xbe3c2c8b	-0.18376367
221	0x3e41096a	0.18851247
222	0x3c9743f0	0.018465012
223	0x3f1295a4	0.57259583
224	0x3f33212e	0.69972503
225	0xbe24d574	-0.16097051
226	0x3e406e00	0.18791962
227	0x3e5e81ce	0.21729204
228	0x3e83ee6c	0.2576784
229	0xbb3361e6	-0.0027371584
230	0xbe2f11f1	-0.17096688
231	0x3e46e6ff	0.19424056
232	0xbc9a0de9	-0.018805461
233	0xbca53ff7	-0.020172102
234	0x3f05060b	0.51962346
235	0xbe05c220	-0.13062334
236	0x3c97a1a1	0.018509688
237	0x3ecbe04b	0.3981956
238	0xbdaabf83	-0.08337309
239	0x3f0007dc	0.5001199
240	0xbe40951e	-0.18806884
241	0xbde99abb	-0.114064656
242	0x3efbd65d	0.49186984
243	0x3ebd13b3	0.36929092
244	0xbd055235	-0.0325491
245	0xbd0b9d7a	-0.03408573
246	0x3e6c2288	0.23060048
247	0x3dbb196c	0.09135708
248	0xbd35efda	-0.044418193
249	0x3e3e8416	0.18605074
250	0x3f665aac	0.89982104
251	0x3f173467	0.59064335
252	0x3dcf5aba	0.101247266
253	0x3e59f4cb	0.21284787
254	0xbd3a67f1	-0.045509282
255	0xbd457423	-0.04820646

onnx::LSTM_201 f4 [1, 256, 128]
0	0xbd19dd48	-0.037564546
1	0x3e510750	0.20412946
2	0x3e9321eb	0.28736815
3	0xbe6d84e1	-0.2319522
4	0x3f34e72b	0.70665234
5	0xbe1ebc1e	-0.15501449
6	0x3e70eccf	0.23527835
7	0xbe9c01cc	-0.3047012
8	0xbc893e8f	-0.016753463
9	0x3f21d664	0.6321776
10	0xbe68db7a	-0.22739974
11	0xbe9f2131	-0.3108001
12	0xbd06a26d	-0.032869745
13	0xbd6713e6	-0.05641546
14	0x3e19113c	0.1494798
15	0xbfa7a59e	-1.3097417
16	0x3dd21b72	0.10259141
17	0x3ec0f2a4	0.3768512
18	0x3eba9118	0.36438823
19	0x3de55f13	0.111997746
20	0xbe1c59b7	-0.15268598
21	0x3ee5628d	0.4480175
22	0x3f0c568d	0.54819566
23	0xbe478ca4	-0.19487244
24	0x3d8a81f2	0.06763066
25	0xbbfe4ab5	-0.0077603706
26	0xbea51bf9	-0.32247904
27	0xbe72f142	-0.23724845
28	0x3c826c39	0.015920745
29	0xbf46ed49	-0.7770582
30	0x3bf82e1c	0.007573856
31	0x3e670cdb	0.22563498
32	0x3e004f32	0.1253021
33	0xbdb9f1d5	-0.09079329
34	0x3c00f66b	0.007871251
35	0xbd887a2d	-0.06663928
36	0xbe2085b2	-0.15676
37	0xbe5970da	-0.21234456
38	0xbdd654e2	-0.10465409
39	0xbf0e0d59	-0.55489117
40	0x3e6a48e9	0.22879376
41	0xbc9c79c2	-0.019101027
42	0xbd16c4eb	-0.03680889
43	0xbe25b9df	-0.16184185
44	0x3d3990a3	0.045303952
45	0xbd919a65	-0.071095265
46	0xbe505972	-0.2034662
47	0xbea6a351	-0.32546476
48	0xbe21758f	-0.15767501
49	0x3e09d0f1	0.13458611
50	0xbf3c7fa9	-0.73632294
51	0x3dcd7276	0.10031597
52	0xbd8c898e	-0.06862174
53	0x3db285b7	0.0871691
54	0x3f10eb51	0.56609064
55	0xbd8c5f69	-0.068541355
56	0xbd9bbb50	-0.076040864
57	0x3f02b78c	0.5106132
58	0x3f025b33	0.5092041
59	0xbe0291f9	-0.12750997
60	0x3f39e7a5	0.72619087
61	0x3eb9b501	0.36270908
62	0xb9e955f6	-0.0004450527
63	0x3ed896d9	0.42302588
64	0xbe5f823f	-0.21827029
65	0xbdf20b57	-0.11818569
66	0x3d7ce123	0.061738145
67	0x3f9967f3	1.1984848
68	0x3e3d98c1	0.18515302
69	0xbc1e625e	-0.009667007
70	0xbe754c8e	-0.23954985
71	0xbce699a0	-0.028149426
72	0xbf0432e7	-0.5164017
73	0xbd85c2b8	-0.0653128
74	0x3f159c7f	0.5844192
75	0x3edb0e55	0.42784372
76	0xbe9eb2c5	-0.30995765
77	0xbf109e5c	-0.5649164
78	0x3f88ce19	1.0687896
79	0xbf5e0df0	-0.86740017
80	0xbf16d1a0	-0.5891361
81	0x3e27be5a	0.16381207
82	0xbe7ef649	-0.24898638
83	0x3c7aceb6	0.015308073
84	0x3c9efa4b	0.019406458
85	0xbd34e212	-0.04416091
86	0x3dd82c1f	0.105552904
87	0xbc1a7242	-0.009426655
88	0xbde70f70	-0.11282241
89	0x3daca3bd	0.08429668
90	0x3e84ff59	0.25976065
91	0xbef70cae	-0.4825186
92	0x3e22c106	0.15893945
93	0x3de856f0	0.11344707
94	0x3decb888	0.11558634
95	0x3effe17b	0.49976715
96	0x3f192e08	0.59835863
97	0xbd5dfa7b	-0.054193955
98	0xbedefe17	-0.4355323
99	0x3e5213d3	0.20515375
100	0xbd33c99a	-0.043893434
101	0xbdee99a4	-0.116503984
102	0xbd4177e8	-0.047233492
103	0x3ec0c120	0.37647343
104	0xbe0ee6e8	-0.13955271
105	0x3c9b0def	0.018927542
106	0xbef9c298	-0.48781276
107	0x3d68cdd8	0.056836933
108	0xbd5735c1	-0.052541498
109	0xbf69fe7a	-0.91403925
110	0x3dcb3ae6	0.09923343
111	0xbedb6372	-0.42849308
112	0xbe2ab1ad	-0.1666934
113	0xbedd2b21	-0.43196967
114	0x3f11c351	0.56938654
115	0x3f07e498	0.5308318
116	0x3d98cf86	0.07461457
117	0xbdfc0395	-0.12305371
118	0xbf7a0450	-0.9766283
119	0xbe63badf	-0.22239254
120	0xbc5cc15c	-0.013473835
121	0x3ecb3d5d	0.39695254
122	0x3f93fb49	1.1561061
123	0xbf8146e4	-1.0099759
124	0xbe026589	-0.12734045
125	0xbde8a7a8	-0.11360103
126	0x3c1be49b	0.009514953
127	0xbdabcfa3	-0.08389213
128	0x3d30b7b8	0.043143958
129	0x3e3c87ee	0.18411228
130	0x3e6d5de5	0.23180349
131	0x3e155786	0.14584169
132	0x3ef94910	0.48688555
133	0xbd3e4c45	-0.046459455
134	0xbe7c63fe	-0.24647519
135	0xbee292d5	-0.4425265
136	0xbbc42da9	-0.0059868884
137	0x3ebe28f6	0.37140626
138	0x3e814861	0.25250533
139	0x3ce954dd	0.028482849
140	0xbdc2de34	-0.09515038
141	0xbe09e0cf	-0.13464664
142	0xbcb75742	-0.022380475
143	0xbf302047	-0.6879925
144	0x3e5815dc	0.21102089
145	0x3e0c4771	0.13699128
146	0x3ea516f8	0.32244086
147	0xbd140d91	-0.03614575
148	0xbe44cdef	-0.19219182
149	0xbe249524	-0.16072518
150	0xbdfd4db4	-0.12368336
151	0xbdf97b39	-0.12181706
152	0xbc7b64e7	-0.015343881
153	0xbe4c4567	-0.1994835
154	0xbe45f42f	-0.1933143
155	0xbe4ae7b6	-0.19814953
156	0x3e7c40f1	0.24634148
157	0xbdf622ef	-0.12018382
158	0x3d22c61f	0.039739724
159	0x3c2403ac	0.010010641
160	0x3dae05c9	0.08497197
161	0x3d910a7e	0.07082079
162	0x3e747742	0.23873618
163	0xbda85b19	-0.082205005
164	0xbd60b741	-0.054862265
165	0xbe66a1ba	-0.22522631
166	0xba8636bb	-0.00102397
167	0xbe777191	-0.24164416
168	0x3e8cc36a	0.2749284
169	0x3e9f0bc8	0.31063676
170	0xbdb04ecd	-0.0860878
171	0x3e971439	0.29507616
172	0xbe216909	-0.15762724
173	0x3dd4d79b	0.10392686
174	0xbc94bf9a	-0.018157769
175	0xbd49d09a	-0.049271204
176	0xbe0556f7	-0.13021456
177	0x3e8ad645	0.271166
178	0xbf0e81a3	-0.5566656
179	0x3ee2b69f	0.44279954
180	0x3e5575e6	0.20845756
181	0xbc97b646	-0.018519532
182	0x3e545e5e	0.20739123
183	0x3df9adac	0.121913284
184	0xbe1a72d8	-0.15082872
185	0x3d716dff	0.05894279
186	0x3ebac41c	0.36477745
187	0x3e27e613	0.1639636
188	0x3f1290f6	0.5725244
189	0x3d5472c3	0.051867258
190	0x3ea6227b	0.32448182
191	0xbb86f0bb	-0.004118053
192	0xbd81a312	-0.06329931
193	0x3ea39d64	0.31956017
194	0x3dead62e	0.11466633
195	0x3f7b5d34	0.9818909
196	0xbe15eae5	-0.14640386
197	0xbe00c7ca	-0.12576213
198	0xbe9a67a8	-0.30157208
199	0xbe9fd543	-0.31217393
200	0xbec3e1be	-0.38258165
201	0x3e839cea	0.25705653
202	0x3f00828d	0.50199205
203	0x3eab02dc	0.3340062
204	0x3e6d6748	0.2318393
205	0xbeb4be0f	-0.35301253
206	0x3f24ec85	0.644234
207	0xbefe9298	-0.49721217
208	0xbe0ea45d	-0.13929887
209	0x3d472847	0.048622396
210	0xbeb2da46	-0.34932154
211	0xbdcceff0	-0.10006702
212	0xbe570fc6	-0.21002111
213	0xbca9398b	-0.020657321
214	0x3ae429bd	0.0017407459
215	0xbe6ae591	-0.22939135
216	0xbe947c33	-0.29001006
217	0x3d26c389	0.04071382
218	0x3e4364cd	0.19081421
219	0xbeb75092	-0.35803658
220	0x3cad6f22	0.021171156
221	0x3e87e5a6	0.26542395
222	0x3e2843af	0.16432069
223	0x3ea2bade	0.31783193
224	0x3ebad3e4	0.36489785
225	0x3d870807	0.06593328
226	0xbe1219e9	-0.14267696
227	0x3e4ee7d4	0.20205623
228	0x3daba26b	0.08380588
229	0xbeb56411	-0.35427907
230	0xbdbc7d14	-0.09203544
231	0x3e580b63	0.21098094
232	0x3ea40bb4	0.3204018
233	0xbe84360c	-0.25822484
234	0x3d2fa068	0.042877585
235	0x3e62ae71	0.22136857
236	0x3e423e4d	0.18969078
237	0xbecde3ec	-0.40212953
238	0x3e8681f2	0.26271015
239	0xbe9361d1	-0.28785565
240	0xbc1d269d	-0.009591726
241	0xbda499d5	-0.08037154
242	0x3e8e582b	0.27801642
243	0x3e687901	0.2270241
244	0xbdfa6e19	-0.12228031
245	0xbecf18e4	-0.40448678
246	0xbf0a75b1	-0.5408583
247	0x3e1e8047	0.15478621
248	0x3cddb061	0.027061643
249	0x3d7024e6	0.05862894
250	0x3f0e425c	0.55570006
251	0xbea0a703	-0.3137742
252	0x3d4e7f83	0.050414573
253	0x3cb4e794	0.022083081
254	0xbd48d510	-0.049031317
255	0xbe18fbfc	-0.14939874

onnx::LSTM_202 f4 [1, 256, 64]
0	0x3ce34e5c	0.027747326
1	0x3e67b30f	0.22626899
2	0xbe480f09	-0.19536985
3	0x3e42df34	0.19030458
4	0x3ea131c1	0.31483272
5	0x3dd7b3f0	0.10532367
6	0xbccfc431	-0.025362106
7	0x3ea2e86b	0.31817946
8	0xbea20b18	-0.3164909
9	0x3eebadee	0.46031135
10	0xbeb0f067	-0.34558412
11	0xbe8c99a0	-0.27460957
12	0x3f2e2a8b	0.68033665
13	0xbd5b12a8	-0.05348459
14	0x3cd134bd	0.025537843
15	0x3e283b18	0.16428792
16	0xbf25531f	-0.6457996
17	0xbdf938f7	-0.12169068
18	0x3ef2909c	0.47375953
19	0x3e024c7c	0.12724489
20	0x3d8e1292	0.06937136
21	0xbd43aace	-0.047770314
22	0x3f1e1736	0.6175417
23	0xbf233d62	-0.6376554
24	0x3e2beae3	0.16788821
25	0x3f2b81c7	0.669949
26	0x3d46e876	0.048561536
27	0x3f91597f	1.1355437
28	0x3f03b0aa	0.5144144
29	0xbe862d4a	-0.26206428
30	0x3bfc796d	0.007704905
31	0x3d1a9e45	0.037748594
32	0xbb16b595	-0.0022996415
33	0x3ea06bd0	0.31332254
34	0xbdba5768	-0.09098703
35	0xbe3bccf1	-0.18339898
36	0xbdd0946a	-0.10184558
37	0xbf1abc37	-0.60443443
38	0x3f40e86a	0.75354636
39	0x3ceeca45	0.029149184
40	0x3f4ccb1c	0.7999742
41	0xbf0a197f	-0.53945154
42	0xbe4985ce	-0.19679949
43	0x3e3b8040	0.18310642
44	0x3e81a7bb	0.2532328
45	0xbf13ad5a	-0.5768639
46	0xbe8aa2ee	-0.2707743
47	0xbd4bedca	-0.04978732
48	0xbf8617f0	-1.0476055
49	0x3d143a44	0.03618838
50	0x3e4e9154	0.20172626
51	0x3dc6ee2f	0.09713399
52	0xbcc2cebf	-0.023780225
53	0xbe99a3ee	-0.3000788
54	0xbed4cebd	-0.4156398
55	0x3db24a53	0.087055825
56	0xbe055770	-0.13021636
57	0x3dfeb0f8	0.12436098
58	0xbf0bbbd0	-0.54583454
59	0xbd46edb7	-0.048566546
60	0xbf5028a7	-0.8131203
61	0x3f81ebe5	1.0150114
62	0xbee9092d	-0.45514813
63	0x3ef4bf84	0.47802365
64	0x3dde7e10	0.10863888
65	0xbe430cd5	-0.19047864
66	0xbdf1eb49	-0.11812455
67	0xbc11eafd	-0.008906123
68	0x3edda859	0.43292502
69	0xbe752d57	-0.23943077
70	0xbdec0f96	-0.1152641
71	0x3dee17be	0.11625622
72	0x3daf7885	0.08567909
73	0xbee6d77e	-0.45086282
74	0xbe2bea25	-0.16788538
75	0xbde63416	-0.11240403
76	0xbd811182	-0.063021675
77	0xbd79fb42	-0.061030634
78	0x3f0803c8	0.5313077
79	0xbedf238a	-0.43581802
80	0xbd5e5ba8	-0.05428663
81	0xbc737564	-0.014859531
82	0xbec67cfd	-0.38767233
83	0x3dc02295	0.09381596
84	0xbd8d73a2	-0.06906821
85	0x3da5f3e2	0.081031576
86	0x3e2ac278	0.16675746
87	0x3ddc5f89	0.107604094
88	0xbda0ef9c	-0.07858202
89	0xbdbf01fe	-0.09326552
90	0x3dd83e0e	0.10558711
91	0x3ee23a89	0.44185284
92	0xbdc10b38	-0.09425968
93	0x3ed49ef4	0.41527522
94	0x3e4f47ff	0.20242308
95	0x3ef2e868	0.47442937
96	0xbe3731b0	-0.17890048
97	0x3e6b0500	0.22951126
98	0x3ecc0ae7	0.39852068
99	0xbd7c417e	-0.061585896
100	0x3ca3edca	0.020010848
101	0x3e866310	0.26247454
102	0x3d99fa66	0.07518463
103	0xbd4a78da	-0.04943166
104	0xbe14e469	-0.14540257
105	0xbec21f60	-0.37914562
106	0xbe09c962	-0.13455728
107	0x3cbefeaf	0.023314802
108	0x3e260ec6	0.16216573
109	0xbe98bca9	-0.29831436
110	0x3f29abb7	0.6627764
111	0xbe65b232	-0.22431257
112	0xbe26de14	-0.16295654
113	0x3dd35c4a	0.10320337
114	0x3e9077e5	0.28216472
115	0xbdffe03f	-0.124939434
116	0xbf18de8f	-0.597146
117	0x3f086e10	0.5329294
118	0xbd547c7e	-0.051876538
119	0xbea4aed4	-0.32164633
120	0xbc8fda19	-0.017560052
121	0xbe49a0d3	-0.19690256
122	0x3e68ea45	0.22745617
123	0xbe4a9bec	-0.19786042
124	0xbe73e522	-0.23817876
125	0x3e25a5cf	0.16176532
126	0xbf0861f9	-0.53274494
127	0x3ea74da5	0.32676426
128	0xbea48521	-0.3213282
129	0xbdd029b3	-0.101642035
130	0xbd9ae617	-0.075634174
131	0x3e5f947e	0.21833989
132	0xbd6dbbc6	-0.058040403
133	0xbe39df8e	-0.18151686
134	0xbe1cdaa8	-0.15317786
135	0xbd882784	-0.06648162
136	0xbeeb15bc	-0.4591502
137	0xbe200d9a	-0.15630189
138	0x3db41682	0.087933555
139	0xbe9d6202	-0.30738837
140	0x3e4eb682	0.20186809
141	0xb98c6d6d	-0.0002678441
142	0xbe7de29a	-0.24793473
143	0x3e1a260c	0.15053576
144	0xbee33e90	-0.4438367
145	0xbd5a9b95	-0.05337103
146	0x3d36f522	0.04466737
147	0x3e348721	0.17629673
148	0xbde4f46c	-0.11179432
149	0x3c83511c	0.016029887
150	0x3dea44f6	0.114389345
151	0xbe3459a6	-0.17612323
152	0x3e69eae6	0.22843513
153	0x3d09f8b6	0.033684455
154	0xbdec7cf3	-0.1154727
155	0x3e4e28dc	0.20132774
156	0xbe11eda9	-0.14250816
157	0xbe684671	-0.22683121
158	0x3d2cbb1f	0.04217064
159	0xbd863d00	-0.065546036
160	0x3d813326	0.06308584
161	0x3ea54683	0.3228036
162	0x3ea11e4d	0.3146843
163	0xbe6ebd2a	-0.23314348
164	0x3e176a13	0.14786558
165	0x3db258bb	0.0870833
166	0x3e28ab9c	0.16471714
167	0x3e84ecfd	0.25962058
168	0xbb607706	-0.003425063
169	0xbdc6800d	-0.096923925
170	0xbdc44592	-0.09583582
171	0x3d51aa94	0.051188067
172	0xbbf6ac09	-0.0075278324
173	0xbef28c8b	-0.4737285
174	0x3d16de20	0.03683293
175	0x3d67df5a	0.05660949
176	0xbc942266	-0.018082809
177	0xbd1c7b07	-0.038203266
178	0xbd2c010c	-0.041993186
179	0x3e5c39f1	0.21506478
180	0x3e648de8	0.22319758
181	0xbd9598cd	-0.07304535
182	0x3dabbc5e	0.083855376
183	0xbe33b317	-0.17548786
184	0x3dd45f5d	0.103697516
185	0xbd0a5648	-0.03377369
186	0xbec960e5	-0.39331737
187	0x3e605118	0.21905935
188	0x3e60bb84	0.21946532
189	0x3dcbebb8	0.09957069
190	0xbd8bfe7c	-0.068356484
191	0xbe110e97	-0.14165722
192	0x3e8933bf	0.26797292
193	0xbe2a6087	-0.16638385
194	0x3d520ed1	0.05128366
195	0x3d0aaf5f	0.033858653
196	0xbe0378b0	-0.12839007
197	0x3e5643dc	0.20924324
198	0xbe23157d	-0.15926166
199	0xbe1c508c	-0.15265101
200	0x3e9f9b5e	0.31173223
201	0xbe96744a	-0.29385597
202	0xbe9abc33	-0.3022171
203	0x3e953931	0.29145196
204	0xbd860298	-0.065434635
205	0xbe4a5d2c	-0.19762105
206	0xbcaa4eb3	-0.02078948
207	0x3e7c36e3	0.24630313
208	0x3e912a81	0.2835274
209	0xbe37ba4b	-0.17942159
210	0xbea6df38	-0.32592177
211	0xbda45acc	-0.08025131
212	0x3e2c982e	0.16854927
213	0xbf1b7b84	-0.60735345
214	0x3e014326	0.12623271
215	0x3e0e5341	0.13898946
216	0xbe1b92bc	-0.15192693
217	0x3dd7b7c8	0.105331
218	0x3e95277b	0.29131684
219	0x3f014306	0.50492895
220	0x3e17c00b	0.14819352
221	0x3dc9a4bc	0.09845874
222	0xbdf47bae	-0.119376525
223	0xbe019201	-0.12653352
224	0xbdae6da6	-0.085170075
225	0xbf303582	-0.68831646
226	0xbdba3b89	-0.09093387
227	0x3da7a4a6	0.08185701
228	0x3ecafb8f	0.3964505
229	0xbe8c0a9b	-0.2735184
230	0xbda36820	-0.07978845
231	0xbb948c90	-0.004533358
232	0x3de22cb2	0.11043681
233	0xbc418e04	-0.011813644
234	0x3e6f943b	0.23396389
235	0xbe2183ac	-0.15772885
236	0xbc9ded01	-0.019278051
237	0x3ea3b83d	0.319765
238	0x3dbe7397	0.09299391
239	0xbc3fe223	-0.01171163
240	0x3e835b48	0.2565558
241	0xbe56f9ea	-0.20993772
242	0x3da62008	0.08111578
243	0xbedd0bd2	-0.4317308
244	0xbd895648	-0.0670591
245	0x3ddcbca2	0.10778166
246	0x3e33ff53	0.17577867
247	0xbe39275c	-0.1808142
248	0x3e07798b	0.13229959
249	0x3dfb8746	0.12281661
250	0x3e4f75d9	0.20259799
251	0xbe1bf9fa	-0.15232077
252	0xbe05273a	-0.13003245
253	0xbda35ec9	-0.07977063
254	0x3dd1dd95	0.102473415
255	0x3f2c5de0	0.6733074
