ML/models/daily/lstm/onnx/lstm_daily.pth (torch, 480546 bytes, 12 tensors)

lstm1.weight_ih_l0 f4 [512, 1]
00000000: 72f2 17be f8d8 3bbe 578a febb 89ad 40be
00000010: 6e74 ff3e 02c0 a7bd 87b3 5e3d 0f89 b7bd
00000020: d779 fa3d 62fb c03e 0d65 b13d 48b1 ce3e
00000030: 1926 7abe 7b0d f0bc 0add 2abd e8d7 b63d
00000040: f2c0 4e3e a537 263e c854 873d f0c7 b7bd
00000050: ac2b 9fbe 55df 073e 450b 8f3e 77c7 173d
00000060: 1d29 b13d c1fb 943c 7be3 9f3e 2510 1f3c
00000070: 0222 c13d ce4d bf3e ebd6 473e a94f 253d
00000080: 7bb0 bfbd 17f6 88be a376 b1bd 04e4 f6bd
00000090: bd90 f23d 887b bbba 2f80 30be 5e3e 423e
000000a0: 9411 133d 4220 35be 06b0 3d3e f961 723d
000000b0: 6fe2 9ebe 3064 80be ff45 063e 44c0 e33e
000000c0: 8f75 e7bd 9569 503e 352a ab3e 083f c1bd
000000d0: 0fcf 05bd a19f 453d a6e1 873e 4a7a 9c3d
000000e0: fdf9 40bd e17d 3d3e fd73 cd3e f4e0 c5be
000000f0: b465 8e3e 4030 86bc 4503 c1be 982d 83be
00000100: 7998 d43e b38d 48bc 566d 35be f82f 823e
00000110: 8ef0 fabd 9d98 a93d dd12 b23e 8485 de3e
00000120: dd5b 0b3f 1af7 23be 6120 e23d 0d6c f73e
00000130: 178f 98be 2884 953e 3366 433e daa3 e23e
00000140: b4d9 9c3e 8579 29be dd42 083e 2732 d6bd
00000150: 2aa8 753e 503e 45be e432 913e 500b acbe
00000160: 268a 3a3e 5ec7 50be d7a8 9c3e d66e 34be
00000170: 146f 1abd 6691 2b3e 1377 9a3d 8684 973d
00000180: 3a44 0a3f bfca 85be 9679 cbbd da33 0bbe
00000190: 0d4d 783c df0f f43d fac7 afbd a985 8c3d
000001a0: ba44 903c 279a 6bbe f00f c03e 96c9 31be
000001b0: c648 38be 3c16 bd3e e801 f0bc e712 9d3e
000001c0: c52a cebd 90d5 8dbe b8de a23e db0b 9e3e
000001d0: aad0 92bd cac7 57be ef55 88be 9c32 42bd
000001e0: 1f20 c03d ccc7 453e 574c c43e 457f af3e
000001f0: a2b6 2abd e85c 14bd 8928 ddbd c010 52be
00000200: a227 e43d 99f1 22be 8f03 693e 882e 31be
00000210: b9dc d2be af8d 1fbe c4cf 333e 54a2 b5be
00000220: 3c46 98bd 9e47 f3bd 34b4 25bd 3ef2 5bbe
00000230: e435 fb3c 0cb2 4fbe 6485 fb3c d723 1ebf
00000240: 1f0c 7fbe 8baa acbd 227d 7d3e 8bc0 7bbd
00000250: 0f2e 56be 97fb 2b3e 907a 60bd 5cbb 42be
00000260: a318 a43d 9b49 96bd f751 463e d679 873d
00000270: 78e9 cbbd 8a24 f9bd f773 b8bd 7443 05bd
00000280: 5eb7 65be c745 3cbd e5f2 853b 788c ffbd
00000290: 7e44 50bd 3571 ffbd e524 67bd 4cca acbd
000002a0: c265 2b3e e7d4 a63c ac50 89bc 2562 a4bc
000002b0: 53a4 b1be eca5 a9bd 2fc9 24bd 8001 4abe
000002c0: a51a e0bd 38f6 8dbe 3bd5 86bd e1e6 55bc
000002d0: 7fe8 72bb 6798 5dbe 4d6b 65be ba59 61bd
000002e0: f98e b0be be2c 81be a9ce 99be 050a c8bd
000002f0: b1aa 0bbf 607b 8cbc baaa c2bd 4c5f a0be
00000300: 63d5 153d 5238 7e3e 7e58 31be c2a6 fabe
00000310: ef34 6cbe 2821 11be f296 0abe f2ba 23be
00000320: 2f5b 9fbe b795 af3d 3b11 a9be a5df 3ebe
00000330: 8881 65bd c4c9 bcbe e267 0dbe 80ce f5be
00000340: 1b2e cfbe 476f 0cbe b33d 713d 0797 45be
00000350: e760 9d3b e1bd c5bd b69c b0be 60b2 1e3e
00000360: 14b3 b1bd 688b 42bd c0b0 263c d84e 7f3d
00000370: 319d d4bd 808d e3bd aa39 a53d 8f72 47be
00000380: df04 72be 6033 a13d 140c 0a3b d642 3ebe
00000390: c354 a9be 4194 debd 681d a1bd 837b aabd
000003a0: 78ba 1d3e 55e9 ad3d 4e1d d23d 8872 bbbd
000003b0: 01a9 47bd d972 193d 81a7 c5bd c2be 99be
000003c0: 2f5d 1a3e 5bfc e5bd e424 27be f622 a4bd
000003d0: 6425 acbd 75e7 e1bc 5ad0 d6be aecf 4bbd
000003e0: 52b3 943d 913d 2b3e 5758 8cbe c311 04bf
000003f0: f195 cbbd a595 16be cdb0 bbbd a760 48be
-0.1483858 -0.18344486 -0.0077679562 -0.18816198 0.49893516 -0.081909195 0.05437043 -0.08961689
0.1223027 0.3769179 0.08661852 0.4036963 -0.24428596 -0.029303303 -0.041714706 0.089278996
0.2019079 0.16232164 0.066079676 -0.08973682 -0.31088006 0.13268788 0.27938285 0.03705546
0.0865042 0.018186452 0.3122824 0.009708439 0.094303146 0.37364048 0.19515578 0.040359173
-0.09359833 -0.26750252 -0.08665206 -0.12055209 0.11844013 -0.0014303783 -0.17236398 0.18969104
0.035905436 -0.17688087 0.18524179 0.059175465 -0.3103213 -0.25076437 0.13112639 0.44482625
-0.113017194 0.20352776 0.3343064 -0.094358504 -0.03266817 0.048247937 0.26539344 0.07640512
-0.047113407 0.1850505 0.40127555 -0.38648188 0.27811968 -0.01638043 -0.37697807 -0.25620723
0.41522577 -0.012240815 -0.1771749 0.25427222 -0.122529134 0.08281062 0.34780017 0.4346124
0.5443705 -0.1601223 0.11041332 0.48324624 -0.2979667 0.2920239 0.19081955 0.44265634
0.30634844 -0.16550262 0.13306756 -0.104587846 0.23989931 -0.19262052 0.2835914 -0.3360238
0.18216762 -0.20388553 0.30597565 -0.17620406 -0.03770359 0.16754684 0.07542243 0.07398324
0.54010355 -0.26131245 -0.099353 -0.13593999 0.015155089 0.1191709 -0.085830644 0.06861431
0.017610896 -0.23008023 0.3751216 -0.17362055 -0.17996511 0.36931026 -0.029297784 0.30678484
-0.100667514 -0.27701998 0.31810546 0.3086842 -0.07168706 -0.21072307 -0.26628062 -0.047411546
0.093811266 0.19314498 0.38339493 0.34276786 -0.04167808 -0.036221415 -0.10798747 -0.20514202
0.11140372 -0.15912475 0.22755264 -0.17302907 -0.41184023 -0.15581392 0.17559725 -0.3547541
-0.07435271 -0.11878894 -0.04045506 -0.21479127 0.030665345 -0.20282763 0.030703254 -0.6177344
-0.24906968 -0.08430966 0.24754766 -0.06146292 -0.20916007 0.16795193 -0.054804385 -0.19016784
0.080125116 -0.07338258 0.19367205 0.06615035 -0.0995664 -0.121651724 -0.090064935 -0.03253503
-0.2243323 -0.045964982 0.004087793 -0.12477964 -0.05084657 -0.124727644 -0.05643167 -0.084370226
0.16738036 0.020365192 -0.0167621 -0.02006633 -0.34695682 -0.082836 -0.040230926 -0.19727135
-0.10942582 -0.27726912 -0.06583639 -0.013055534 -0.0037064848 -0.21640168 -0.22404213 -0.05501721
-0.3448408 -0.25229448 -0.30040482 -0.09767536 -0.5455733 -0.017148674 -0.0950522 -0.31322706
0.036580455 0.24826172 -0.17318913 -0.4895535 -0.23067068 -0.14172804 -0.13534144 -0.15989283
-0.31124255 0.08573478 -0.33020958 -0.18640001 -0.056031734 -0.36872685 -0.1380916 -0.4800911
-0.40464863 -0.13714324 0.05889673 -0.19295894 0.0048028114 -0.09655357 -0.3449456 0.15497732
-0.086767346 -0.04749623 0.010173976 0.06233105 -0.103815444 -0.11110973 0.08067639 -0.19477294
-0.2363467 0.07871127 0.0021064328 -0.18580183 -0.3307248 -0.10868121 -0.07866937 -0.08324339
0.15403163 0.0849177 0.10259496 -0.091527045 -0.04874516 0.037463043 -0.096510895 -0.3002835
0.15074609 -0.112297736 -0.16322666 -0.08014481 -0.08405569 -0.027576188 -0.41955835 -0.049758606
0.07260765 0.16722704 -0.27411148 -0.515896 -0.099407084 -0.14705522 -0.091645814 -0.1956812

lstm1.weight_hh_l0 f4 [512, 128]
00000000: 6083 e9bc bea7 efbd fcfa f1bb a4aa a039
00000010: 429e b63d a610 0bbd feb8 c43d 0aaa 9b3d
00000020: 606e e0bc 8fc9 d03d 28cd dcbd 1240 493c
00000030: 5119 f33d 2291 bebc c4cf 05bd 8bc3 f5bd
00000040: 8fb2 46bc 4cea b53c feea 073d 0f7f c23c
00000050: 1671 a9bc e88c 69bd c0e8 143e f155 1e3c
00000060: b9d8 79bd f4d2 673c 98f5 98bd 0caf d33c
00000070: 6380 d2bd 60f5 00be 5afd a33c af7e 543d
00000080: d0a1 2c3e f448 87bd 3204 0f3d 889b 193e
00000090: 2142 da3c 1924 3c3c 5fc3 adbd 91e4 ae3c
000000a0: 6e90 00bd e318 9bbc 38cd f8bc 4a3d 3ebe
000000b0: 37da 38bb fa40 25bd bf4e 9f3a 8952 823d
000000c0: f40f b03d 99e3 d23d 4d26 26bd 04bb a4bd
000000d0: 4d48 17be 43cc b8bd fc21 8cbd 5ef4 6cbc
000000e0: 908e e0bd b316 f3bd c63c 5b3d 992a 18be
000000f0: 2167 b3bc c6fc 293e 683d 09bd e90f 30bc
00000100: 307a 30bd 26f5 4f3d daba 65ba 22d7 223d
00000110: 63aa 6ebd 00e5 89bd ec30 0bbd 176c 0c3e
00000120: 4a7a 05bd 820d b5bc 2b0a 12bd c513 cdbb
00000130: 073c 0abe 2641 51bd 2db1 5e3e 0bae aa3d
00000140: 90ce 0abd 74d4 0a3a 12fb afbd ab4e b5bd
00000150: dc0b 32bd 97e3 07bd 148f ca3d e3d3 c23d
00000160: 6bee d0bc bd2f c33d dae3 84bd fc8b d6bd
00000170: 2f3b 893d e001 21be 7588 2cbd 9276 e7bc
00000180: bd26 aa3d d4ed 193c 2fd4 12bd 622f 88bd
00000190: 31fe 013c 77ca 153e ebfc 90bd 7bca cdbc
000001a0: ef81 c33d e6fa 9938 a397 fbbd 7918 303d
000001b0: c8c3 93bd dec4 b7bd 9933 efbc 8025 aabd
000001c0: c5da 3d3d 60d5 81bd 212d 2ebc 0a5b 513d
000001d0: 19f7 b5bd d3e5 c93c 855b 5dbe 264d 3e3d
000001e0: 7834 b23c 606e 963d 8c4d 553d e4cf 0cbe
000001f0: 753e 07be 37b9 62bd 5191 0dbe feef 87bd
00000200: d8bb a43d 2471 0dbe d93b 2a3e d2bf fe3d
00000210: ed31 0b3d 7c8e 79bd b5f5 003e 7b06 cebc
00000220: ec42 ee3c 9d75 2ebd c293 003e 48a8 68be
00000230: 5f3d a63c 3acf 68bd 80a6 793a 69af b63d
00000240: e5a8 2d3d cdd4 023e 716e 643e 5636 b53d
00000250: 43c9 47bd 2bfa b33d d549 ddbd fd33 c3bc
00000260: 1b99 d1bc ecf2 efbc 79db 143e ff4a 26be
00000270: f59f eb3d a003 75be bf4c 8dbd d9fa 8b3d
00000280: c34e f33d 4dc0 493d 1355 cd3c 7dee 813d
00000290: e5cb 08be c0c4 dcbd b6fd adbd 71e1 f0bd
000002a0: fc28 4a3d ecce 1d3d 549f 41be b3b4 2a3d
000002b0: b538 0bbc e95c c33d b733 3dbe 0b38 49be
000002c0: 895e 1cbe cf69 743d 8741 2f3c 6c69 f23d
000002d0: eab0 153e 955f 483e 6490 fa3d 57fb 7d3d
000002e0: 724c 39bc 4a87 e23d a276 d33d 5134 e33d
000002f0: 9303 0e3e 902e 1fbd 0695 593d 9b7e 68be
00000300: fbac a4bd e674 4fbd 549a 093d 16b8 60bd
00000310: 76c3 a8bd e40c 99bc b338 e1bd f184 073e
00000320: e59c 1abc aae9 49bd 20b2 c23d 05e3 8d3e
00000330: b845 3b3d 7388 89be 6851 9cbd f66c afbd
00000340: bd2c 31be daa4 2f3e 6573 a03c 92a7 4a3c
00000350: e5b4 03bb 10d8 d1bd 7c2d 11be 2392 e4bd
00000360: 3bb5 58be e72c aebd 9411 ea3d ece2 97be
00000370: 3bf2 86bd c496 933d 717d e2bc 9b2e 263e
00000380: 98ef 383d 8523 1cbd ed1c 8c3d 7399 053e
00000390: 7eb9 2b3e 9082 abbc ae14 4bbb fe1b 623e
000003a0: 9181 2bbe c31a bbbd b99d c23d 7101 82bb
000003b0: c42e 6bbc 0f9d 353d a672 77bd 1be5 ccbd
000003c0: 3beb e0bd 4dec b8bb 5736 323e f553 053d
000003d0: a7dc 4abd d3fb 40bb d715 e5bd 8b40 063c
000003e0: 8faf 94bd 1555 d8bd ee13 d43d bb89 5bbe
000003f0: 8209 a8bd f593 56bd f3ee 6c3d 578a 9cbd
-0.028505027 -0.11701916 -0.007384656 0.00030644715 0.08916904 -0.033951424 0.09605597 0.07600792
-0.02739638 0.10194694 -0.10781318 0.012283342 0.11870063 -0.023262564 -0.032668844 -0.120001875
-0.012127533 0.022206448 0.03318309 0.023742227 -0.020683806 -0.057019144 0.14541912 0.009664045
-0.0609977 0.014149416 -0.07468718 0.025840305 -0.10278394 -0.12593603 0.020018268 0.051878627
0.16858602 -0.066057116 0.03491611 0.15000737 0.02664286 0.011483216 -0.0848453 0.021349223
-0.03138774 -0.018932765 -0.030371293 -0.18578067 -0.0028206238 -0.04034517 0.0012154205 0.063633986
0.08596793 0.10297317 -0.04056387 -0.08043483 -0.14773674 -0.09023335 -0.068424195 -0.014462559
-0.10964692 -0.11869564 0.053524755 -0.1486 -0.021899762 0.16600332 -0.033505827 -0.010745981
-0.043085277 0.0507709 -0.00087635 0.039755948 -0.058267962 -0.067331314 -0.033982202 0.13713108
-0.032587327 -0.022101168 -0.03565423 -0.00625846 -0.13499461 -0.05108752 0.21747275 0.08333977
-0.0338884 0.000529594 -0.0859281 -0.08852895 -0.04346834 -0.03317603 0.09890571 0.095130704
-0.025504312 0.0953059 -0.06488772 -0.10475919 0.067007415 -0.15723372 -0.042122323 -0.02825478
0.0830817 0.009395082 -0.035846885 -0.066496626 0.007934139 0.14628015 -0.0707949 -0.025120964
0.09546267 7.342342e-05 -0.12284782 0.04299209 -0.07215077 -0.08973096 -0.029199408 -0.08307934
0.046351213 -0.06339526 -0.010630877 0.051112212 -0.08885021 0.024645722 -0.21616943 0.046460293
0.021753535 0.07345271 0.052075908 -0.13751179 -0.13207419 -0.055352416 -0.13824965 -0.06637572
0.08043641 -0.13812691 0.16624393 0.124389306 0.03398316 -0.0609269 0.1259373 -0.025149575
0.029084645 -0.042592634 0.12556365 -0.22720444 0.020292936 -0.05683825 0.00095234066 0.089201756
0.0423974 0.1277649 0.22307755 0.088482544 -0.048775923 0.0878795 -0.10805098 -0.0238285
-0.025585702 -0.029290639 0.14536847 -0.16239546 0.11505119 -0.23927164 -0.06899404 0.06834955
0.11880257 0.049255658 0.02506498 0.06344316 -0.1335903 -0.107797146 -0.08495657 -0.117617495
0.049355492 0.038527414 -0.18908435 0.041676234 -0.008497407 0.095392056 -0.18476759 -0.19650285
-0.15270437 0.05967122 0.010696775 0.11836514 0.14618269 0.19567712 0.122345716 0.062007274
-0.01130973 0.110609606 0.10325362 0.11093963 0.13868551 -0.038862765 0.053120635 -0.22704546
-0.08040806 -0.050648592 0.033594444 -0.054863058 -0.08240406 -0.018682905 -0.10997143 0.13234307
-0.009436821 -0.049295105 0.09506631 0.27712265 0.045720786 -0.26861915 -0.076327145 -0.085657045
-0.17302223 0.1715273 0.019586274 0.012369053 -0.0020096835 -0.10246289 -0.14177507 -0.11160686
-0.21162884 -0.08504658 0.11429134 -0.29665315 -0.065891705 0.07206491 -0.027647706 0.16228716
0.04515037 -0.03811981 0.06841455 0.13046817 0.16769978 -0.02093628 -0.0030987668 0.2208099
-0.16748644 -0.09135964 0.095027395 -0.003967457 -0.0143544115 0.044339236 -0.06041207 -0.10004636
-0.10982367 -0.0056434036 0.17403542 0.03255077 -0.049526837 -0.0029446974 -0.11185806 0.008194099
-0.07260048 -0.10563103 0.10355364 -0.21439259 -0.082049385 -0.052387197 0.057845067 -0.07643574

lstm1.bias_ih_l0 f4 [512]
00000000: 9d95 17be 4309 833c 7cbd 93bd c746 24be
00000010: 3d25 1c3f aa40 583e e0d9 63bd 6ef2 6e3e
00000020: e608 273d 1875 b23e f424 c9bd db9f 0b3f
00000030: 144e 22be 8f66 5fbc c38b 21bd a2e5 053f
00000040: 17ba 403e e32e 8c3e 3ff8 56bd a960 1dbe
00000050: 1a0b 463e cd15 f53c 35fb 013d 49e0 0a3e
00000060: 7330 8cbd d641 efbc c17f 9a3e 6f89 f2bd
00000070: bd2d 4bbe d715 fd3e 705d 793e d113 e83d
00000080: 0cf6 523e 2c91 57be 2748 003e a070 6cbe
00000090: 75c9 323e f83d e8bc 437d 0cbd fe94 043f
000000a0: 8259 b1bd f0bb 36be 5993 323e 60af d03c
000000b0: a30b 3e3e 6b04 ccbc 2f3c eebd 73c2 023f
000000c0: ce5c 84bd df7c 953e 74c2 f93e b2ac c5bd
000000d0: 7bac 9cbd a5e0 0c3e 1abf be3e 3e5d fe3d
000000e0: 0aed 7f3e 8931 d43e 7520 013f f7f7 8bbe
000000f0: 207d 113f 4986 11be b3d7 46be bc5a 90bd
00000100: 7a65 d33e 186c d6bd db7c 1d3e d545 233f
00000110: 1527 033e d5c6 293e afe4 f93e 6b30 8a3e
00000120: c01b 0e3f 97f7 63be 7006 ea3e 305e 073f
00000130: ed4f 15be fdb9 c33e 35d7 cd3e d486 663f
00000140: 286d a23e 6c72 2dbd 21f8 083e 1564 093e
00000150: a9a1 0e3e 4f95 b3bd 7f80 963e 2ac0 2cbe
00000160: 9fd3 8d3e 9122 4abd 31a7 9b3e 17f6 adbd
00000170: f31b d0bd e25b 5b3e 90aa 72bd 5c65 ee3e
00000180: d8a5 123f 3252 73be 20db 443e 16ad 8d3e
00000190: 09cd 8b3e 48e8 c03c fccd 4bbe b2b6 933e
000001a0: c8e8 033a e143 cfbd 760e d33c 310a 66bc
000001b0: 7866 3fbd 6987 df3e c540 a5ba 9ba4 093f
000001c0: 4144 03bd 9f45 21bd 5390 0c3f 27dd 983e
000001d0: 457d 0cbe 8f3a 0bbe a580 1c3e e075 393d
000001e0: bcfe b7bd f66f 8c3e d671 403f 1d8e 1e3f
000001f0: 8e89 793d bfa6 3a3e af6a a4bd 0bfd 523d
00000200: 493d 83bd 4ae3 5ebd 5ef1 033e cd78 bfbd
00000210: 9561 9cbe eb81 82be e4fa 20bd d00b 88be
00000220: 348d cfbd 2933 26be 8ad8 6fbe 9245 7abe
00000230: 4d97 563d fe7a c0bd 9046 01be 15c7 55be
00000240: f2a5 57be 544d 93be 6ed7 6f3d f257 41be
00000250: e778 1abe cded af3d 0752 4fbe 643f 81be
00000260: a147 53be f79a 26be 4a54 57be 5102 80bc
00000270: 738a 30be 3469 7abe f3ab 3ebe 11d6 7bbe
00000280: 9a65 98bd daba 5bbe a0af 90be 0b2e 24be
00000290: b820 9ebe 3fa8 3bbe f64b 21be 9768 8cbe
000002a0: b0b2 9fbd c242 693d 1fda 79bd 1a2b 0cbe
000002b0: c2c9 86be d1fb 50be cdd2 9bbe 2edb 87be
000002c0: aa02 8ebd 3f49 59be dd32 49be b6cb b4bd
000002d0: 9ab7 9bbe 923a 4dbe d525 08be 4452 aabe
000002e0: 3a96 61be 5537 78be 5c41 dabd a833 fcbc
000002f0: ff50 68be b603 b8bd 7c7f 29be 9c67 5fbe
00000300: 04ed 4abe 6543 f73c 9d95 12be 3cc8 59be
00000310: 9069 bcbd d846 69be e709 47be a368 8abe
00000320: f70d 47be 4b6b e0bd a430 85be dc4a 81be
00000330: 54b0 793d f34e a7be caea 1f3d b803 96be
00000340: f5a8 c8be 4b2c 23be dd36 4dbe 0269 65be
00000350: 03a6 20be 5e48 23be 7190 bdbe f8e3 c73d
00000360: b5a8 d4bd 5a88 86bd 3ca4 47be 8ae6 d83d
00000370: 4a45 59bd 1779 a1be 2e84 82bd e486 6bbe
00000380: 9676 58be 246d 89bd 576f 0cbe 1a29 8abe
00000390: b449 2cbe 1898 6cbd d809 f73d 3914 22be
000003a0: 05f4 35bd 6d2d a2bd 73cd 27be 8341 05be
000003b0: 5b05 05be f76a 3cbe 0f3d 03be 28db a4be
000003c0: 7f98 133e f39d 03bd c680 91be 6d70 31be
000003d0: 7524 30be acb8 53be 450c 70be eb9d 38be
000003e0: 14dd 48be 109a 36be 8050 74be d3a2 64be
000003f0: afa8 e9bd 1353 24be f3a6 40be 044a f0bd
-0.14803167 0.015995627 -0.07213876 -0.16042624 0.6099432 0.21118417 -0.055627704 0.23334667
0.04077997 0.3485496 -0.098215014 0.54540795 -0.15850097 -0.013635292 -0.039439928 0.52303517
0.18820988 0.27379522 -0.05248284 -0.15368904 0.19340172 0.029917622 0.03173371 0.1356212
-0.068451785 -0.029206198 0.30175593 -0.1184262 -0.19841667 0.49430725 0.2435205 0.11331905
0.20601672 -0.21051472 0.12527524 -0.23089838 0.17459662 -0.028349862 -0.034299146 0.51789844
-0.086596504 -0.1784513 0.17439021 0.02547425 0.18559127 -0.02490445 -0.11632573 0.51077956
-0.064630136 0.29196832 0.48781168 -0.0965208 -0.076500855 0.1375757 0.37255174 0.12420128
0.24992767 0.41444042 0.5044015 -0.2733762 0.5683155 -0.14211382 -0.1941822 -0.07048556
0.41288358 -0.10469836 0.1537966 0.6377843 0.12807877 0.16579755 0.48807284 0.26990065
0.55511093 -0.22262417 0.45708036 0.52878094 -0.1458127 0.38227835 0.40203252 0.9004948
0.31723905 -0.04234545 0.13375904 0.13417085 0.13928856 -0.08768713 0.2939491 -0.1687018
0.27700517 -0.04934937 0.30400994 -0.084942035 -0.10161581 0.2142177 -0.059244692 0.46561706
0.5728431 -0.23761824 0.19224215 0.27671117 0.27304867 0.02354826 -0.19902796 0.28850323
0.00050319405 -0.10120369 0.025763731 -0.014040516 -0.04672858 0.43657997 -0.0012607804 0.53766793
-0.032047514 -0.039373036 0.5490772 0.29856226 -0.13719662 -0.13596557 0.15283449 0.04527843
-0.089841336 0.2742917 0.751737 0.619356 0.060922198 0.18227671 -0.08028161 0.05151085
-0.064081736 -0.05441598 0.12885043 -0.09349213 -0.305432 -0.25489745 -0.039301768 -0.26571512
-0.10134354 -0.16230454 -0.23422447 -0.24440601 0.052390385 -0.09398459 -0.12624574 -0.20876725
-0.21059397 -0.28769934 0.05855506 -0.18881205 -0.15085183 0.08590279 -0.20246135 -0.25243676
-0.20632793 -0.16270052 -0.21028247 -0.015626105 -0.17240314 -0.24454194 -0.18620281 -0.24593379
-0.07441254 -0.21457997 -0.2825899 -0.16033189 -0.30884337 -0.183259 -0.15751633 -0.27423546
-0.07797754 0.05694843 -0.060999032 -0.13688317 -0.26325804 -0.2040856 -0.30434266 -0.26534408
-0.06934102 -0.21219347 -0.19648309 -0.08827917 -0.30413514 -0.20041874 -0.13295682 -0.3326589
-0.22029963 -0.24239857 -0.106569976 -0.03078635 -0.22687148 -0.08985083 -0.16552538 -0.21816868
-0.19816977 0.030183503 -0.14314885 -0.2126779 -0.09199822 -0.22780931 -0.19437371 -0.27032956
-0.19438921 -0.109579645 -0.26013672 -0.25252426 0.060959175 -0.3267742 0.03904227 -0.29299712
-0.39191404 -0.15934865 -0.2004046 -0.22403339 -0.15688328 -0.15945575 -0.37024263 0.097602785
-0.10383741 -0.06568976 -0.19496244 0.10590847 -0.053044595 -0.31537697 -0.063728675 -0.23000675
-0.21138987 -0.0671027 -0.13714348 -0.26984483 -0.1682499 -0.057762235 0.120624244 -0.15828027
-0.04442217 -0.079188205 -0.16386966 -0.13013272 -0.12990324 -0.18400179 -0.12816261 -0.32198453
0.14413641 -0.032133054 -0.2841856 -0.17328043 -0.17201407 -0.20675915 -0.2344218 -0.18028991
-0.19615585 -0.17832208 -0.23858833 -0.22327738 -0.11409127 -0.16047315 -0.18813686 -0.11732867

lstm1.bias_hh_l0 f4 [512]
00000000: 9bfb bfbd 030f 05be 88b6 2dbe d5f7 e5bc
00000010: 3933 2b3f c0bd 3e3e 3869 643d f64b 343e
00000020: 529f 233d acc1 903e f446 96bd 8b7a df3e
00000030: bcdb 3dbe 258e 563d 297f 11bb 0b41 063f
00000040: 15ed 2c3e 1419 9e3e 95f9 a5bd 3fbc f8bd
00000050: f4ac 403e f595 583c f151 0dbd fb60 053e
00000060: 2b94 13bd db55 a63d f321 833e e5ba 2bbe
00000070: 7843 aabd a76e 1c3f 6a83 363e b452 083e
00000080: 3bc4 d73d d0f5 94be 9c3a e63d ae61 7abe
00000090: 8163 633e 9d86 a63d ff05 eabd 40c9 be3e
000000a0: 7ead b7bd aad3 22be af2b ad3d 2369 7fbd
000000b0: 4baa b03d b854 7e3d b7ff c3bd 6472 103f
000000c0: 656b bfbd 9237 a93e 46c2 f83e d276 53be
000000d0: 39b1 9abd 1851 4b3e b8fc 8d3e 0b06 d33d
000000e0: 9f86 553e 7750 df3e d1ea 0a3f 5822 79be
000000f0: 1e90 f73e 0190 2fbe f324 92be 5b11 47bd
00000100: ba5a b03e bd40 41be c3a8 123c 7da1 1e3f
00000110: a3d1 89bb 97bc 593e 1903 df3e 0ecc a63e
00000120: e5a9 ca3e e5db 50be 5678 ad3e 87b2 1b3f
00000130: cd84 1dbe 3790 ba3e 5fff c63e 3092 613f
00000140: eae9 a13e e38b 80bd 63c0 c13d 23dc 193e
00000150: 6b60 b53d 6f05 08be ad0d a23e ce12 30be
00000160: f910 a93e c292 55be 17ca 8a3e 43e5 34be
00000170: 9625 03be fa4f 983e fa4e 91bd b98e 193f
00000180: fc91 0a3f 41d8 f3bd 9cf2 d63d 8f3b 383e
00000190: 72f4 733e f66e 8cba 3461 5dbe 4ca0 673e
000001a0: a73c 11be bd4d 9cbc 5a33 84bc 718b 02be
000001b0: 08c3 40bd eb91 d83e 94a4 f13c d3c1 033f
000001c0: a7b7 f4bc 4723 bfbd f32a e93e 3ee5 a83e
000001d0: e737 15bd e570 0bbd 8bf3 313e 009a 553d
000001e0: 0980 7fbc 2ac6 203e c462 3b3f 8bfd 193f
000001f0: 77e8 953d 7194 203e f74e 55bd fcc8 90bd
00000200: 2ab4 88bd 0a9b 0bbe 5efe e23d f90e 9dbd
00000210: 03cc acbe 5a90 91be 5aa5 453d 59e0 7ebe
00000220: d318 80be a194 22be 0222 5bbe c749 96be
00000230: 4382 ce3b 14bd 30be ce8a 79be ff36 65be
00000240: 0390 84be 8115 10be 66d1 203e 5422 1dbe
00000250: c9bc 61be 3477 483d 1806 90be 2af2 75be
00000260: 0368 23be e1fe 02be 3e80 0ebe 8011 373d
00000270: 0dbe 83be ce45 77be 8bb9 90be dff5 54be
00000280: 31fc ebbd e379 06be 7c6b aebe 6b0e 67be
00000290: c6ea 8ebe 95d9 28be 26e8 1cbc 7731 b3be
000002a0: 6ef8 003c f3d5 f0bc 2d27 42be 48a3 6fbe
000002b0: 7d46 87be 5d12 2fbe 50d1 2fbe 29c7 a1be
000002c0: bdbf 2dbc f943 3bbe 6d1a 67be e1d0 4fbd
000002d0: 8cc5 92be a8e3 4fbe 095f 6bbe 7c45 abbe
000002e0: e59a fabd 58fc a7be ec92 83be b6a1 80bd
000002f0: 1084 b7be 4f6e 08be 3902 42bd 263a 7fbd
00000300: ae47 65be c71c c13d 7c49 1ebe 16ce eabd
00000310: 07e0 08bd a5c6 a3be 6db1 91be 0532 8fbe
00000320: 53f5 8dbe f26e 83bd c3b5 89be b366 96be
00000330: 81dd f03c 3f17 9ebe 8035 793d 622d c0be
00000340: 031b cfbe d99b 17be 359b 41be eccd 71be
00000350: 0a43 81be dfc4 04be 450d aebe 139e 533d
00000360: ab2d e8bd a7a4 adbc a693 d5bd f482 4abd
00000370: 661f 9bbd f26e 59be 0deb 36be b584 a2be
00000380: 1185 a7be bc26 c93c 5d2b 17be 7d56 92be
00000390: 6012 f5bd 1c2e 02bd 3abd d9bc a424 9ebe
000003a0: a20c 893d 001f 08bc 5b1a aebd 064f 14be
000003b0: 5608 acbd 9d64 53be 5efd 53be 0d01 a5be
000003c0: 9b4f 993d 92c9 9fbd 1a5d 85be c9e0 35be
000003d0: 31b4 38bd 9594 d0bd b77e 52be 92fe 86be
000003e0: 74e9 c0bd d854 10be e887 85be f1c1 47be
000003f0: 43ca 5dbe 9168 86bd 2ba6 16be 0d52 0cbe
-0.09374162 -0.12994008 -0.16964161 -0.028072277 0.66875035 0.18627071 0.055764407 0.17607102
0.03994686 0.2827276 -0.07337752 0.4364818 -0.18540853 0.052381653 -0.0022201038 0.52443
0.16887315 0.30878508 -0.081042446 -0.1214528 0.18815976 0.013219346 -0.034501974 0.13025276
-0.036029976 0.081218444 0.2561184 -0.16770513 -0.0831365 0.6110634 0.17823568 0.13312799
0.10535475 -0.2909379 0.112416476 -0.24451324 0.22205926 0.08131144 -0.11426925 0.37262917
-0.08968638 -0.15901056 0.084555976 -0.062356126 0.08626231 0.062092513 -0.09570258 0.56424546
-0.09346656 0.3305021 0.4858572 -0.20650795 -0.07553334 0.19855154 0.27731872 0.10303887
0.20852135 0.43616077 0.5426455 -0.24329507 0.4835214 -0.17144777 -0.28543815 -0.048600536
0.3444422 -0.18872352 0.008951369 0.6196516 -0.004205899 0.21263348 0.4355705 0.32577556
0.39582744 -0.20396383 0.33880872 0.60819286 -0.1538269 0.36438152 0.38866708 0.8811369
0.31623775 -0.06276681 0.09460523 0.15025382 0.08856281 -0.13283323 0.3165106 -0.17194673
0.33020762 -0.20856765 0.27107307 -0.17665581 -0.12807307 0.29748517 -0.07095142 0.599834
0.54129004 -0.119064815 0.10495493 0.1799147 0.23823717 -0.0010714221 -0.21619111 0.22619742
-0.14183293 -0.019080037 -0.016137768 -0.12748505 -0.047060996 0.42298827 0.029497422 0.5146763
-0.029872729 -0.093329005 0.4554058 0.32987398 -0.036430266 -0.03404321 0.1737806 0.05214882
-0.015594491 0.15700594 0.7319758 0.601525 0.0731973 0.15681626 -0.05207726 -0.07069585
-0.066749886 -0.13633361 0.11083673 -0.076688714 -0.337494 -0.28430444 0.048253395 -0.2489027
-0.2501894 -0.1587701 -0.21399692 -0.29353163 0.0063021495 -0.17259628 -0.24369356 -0.2238426
-0.25891122 -0.14070703 0.15704879 -0.15345126 -0.22044672 0.048941806 -0.2812965 -0.2401816
-0.15957646 -0.12792541 -0.13916108 0.044694424 -0.25730935 -0.24147722 -0.28266558 -0.20796917
-0.11522711 -0.13132434 -0.3406638 -0.22564094 -0.27913493 -0.16489251 -0.009576833 -0.34998676
0.00787173 -0.029398894 -0.18960257 -0.2340213 -0.26420966 -0.17096849 -0.1716969 -0.3159726
-0.010604796 -0.18287648 -0.22568674 -0.05073631 -0.2866634 -0.20301688 -0.22985472 -0.3345145
-0.12236575 -0.3280971 -0.2569803 -0.06280844 -0.35842943 -0.1332333 -0.0473654 -0.062311314
-0.22390625 0.09429317 -0.1545772 -0.11465089 -0.033416774 -0.3198749 -0.28455678 -0.2796785
-0.2772623 -0.064176455 -0.26896486 -0.29375228 0.029402496 -0.3087711 0.060842037 -0.37534624
-0.40450296 -0.14805545 -0.18906863 -0.23613709 -0.2524646 -0.12965725 -0.339945 0.051664423
-0.113368355 -0.021196676 -0.10428552 -0.049441293 -0.07574348 -0.21233729 -0.17863102 -0.31741872
-0.3271871 0.024554603 -0.14762636 -0.2858161 -0.119663954 -0.031782255 -0.026579488 -0.3088733
0.06691863 -0.008308172 -0.08501121 -0.1448327 -0.084000275 -0.2064385 -0.2070212 -0.32227364
0.07485887 -0.07802118 -0.26047593 -0.1776153 -0.04509372 -0.1018459 -0.2055615 -0.26366097
-0.09419528 -0.14094865 -0.2608025 -0.19507577 -0.21659188 -0.06562913 -0.14711826 -0.13703175

lstm2.weight_ih_l0 f4 [256, 128]
00000000: 48dd 19bd 5007 513e eb21 933e e184 6dbe
00000010: 2be7 343f 1ebc 1ebe cfec 703e cc01 9cbe
00000020: 8f3e 89bc 64d6 213f 7adb 68be 3121 9fbe
00000030: 6da2 06bd e613 67bd 3c11 193e 9ea5 a7bf
00000040: 721b d23d a4f2 c03e 1891 ba3e 135f e53d
00000050: b759 1cbe 8d62 e53e 8d56 0c3f a48c 47be
00000060: f281 8a3d b54a febb f91b a5be 42f1 72be
00000070: 396c 823c 49ed 46bf 1c2e f83b db0c 673e
00000080: 324f 003e d5f1 b9bd 6bf6 003c 2d7a 88bd
00000090: b285 20be da70 59be e254 d6bd 590d 0ebf
000000a0: e948 6a3e c279 9cbc ebc4 16bd dfb9 25be
000000b0: a390 393d 659a 91bd 7259 50be 51a3 a6be
000000c0: 8f75 21be f1d0 093e a97f 3cbf 7672 cd3d
000000d0: 8e89 8cbd b785 b23d 51eb 103f 695f 8cbd
000000e0: 50bb 9bbd 8cb7 023f 335b 023f f991 02be
000000f0: a5e7 393f 01b5 b93e f655 e9b9 d996 d83e
00000100: 3f82 5fbe 570b f2bd 23e1 7c3d f367 993f
00000110: c198 3d3e 5e62 1ebc 8e4c 75be a099 e6bc
00000120: e732 04bf b8c2 85bd 7f9c 153f 550e db3e
00000130: c5b2 9ebe 5c9e 10bf 19ce 883f f00d 5ebf
00000140: a0d1 16bf 5abe 273e 49f6 7ebe b6ce 7a3c
00000150: 4bfa 9e3c 12e2 34bd 1f2c d83d 4272 1abc
00000160: 700f e7bd bda3 ac3d 59ff 843e ae0c f7be
00000170: 06c1 223e f056 e83d 88b8 ec3d 7be1 ff3e
00000180: 082e 193f 7bfa 5dbd 17fe debe d313 523e
00000190: 9ac9 33bd a499 eebd e877 41bd 20c1 c03e
000001a0: e8e6 0ebe ef0d 9b3c 98c2 f9be d8cd 683d
000001b0: c135 57bd 7afe 69bf e63a cb3d 7263 dbbe
000001c0: adb1 2abe 212b ddbe 51c3 113f 98e4 073f
000001d0: 86cf 983d 9503 fcbd 5004 7abf dfba 63be
000001e0: 5cc1 5cbc 5d3d cb3e 49fb 933f e446 81bf
000001f0: 8965 02be a8a7 e8bd 9be4 1b3c a3cf abbd
00000200: b8b7 303d ee87 3c3e e55d 6d3e 8657 153e
00000210: 1049 f93e 454c 3ebd fe63 7cbe d592 e2be
00000220: a92d c4bb f628 be3e 6148 813e dd54 e93c
00000230: 34de c2bd cfe0 09be 4257 b7bc 4720 30bf
00000240: dc15 583e 7147 0c3e f816 a53e 910d 14bd
00000250: efcd 44be 2495 24be b44d fdbd 397b f9bd
00000260: e764 7bbc 6745 4cbe 2ff4 45be b6e7 4abe
00000270: f140 7c3e ef22 f6bd 1fc6 223d ac03 243c
00000280: c905 ae3d 7e0a 913d 4277 743e 195b a8bd
00000290: 41b7 60bd baa1 66be bb36 86ba 9171 77be
000002a0: 6ac3 8c3e c80b 9f3e cd4e b0bd 3914 973e
000002b0: 0969 21be 9bd7 d43d 9abf 94bc 9ad0 49bd
000002c0: f756 05be 45d6 8a3e a381 0ebf 9fb6 e23e
000002d0: e675 553e 46b6 97bc 5e5e 543e acad f93d
000002e0: d872 1abe ff6d 713d 1cc4 ba3e 13e6 273e
000002f0: f690 123f c372 543d 7b22 a63e bbf0 86bb
00000300: 12a3 81bd 649d a33e 2ed6 ea3d 345d 7b3f
00000310: e5ea 15be cac7 00be a867 9abe 43d5 9fbe
00000320: bee1 c3be ea9c 833e 8d82 003f dc02 ab3e
00000330: 4867 6d3e 0fbe b4be 85ec 243f 9892 febe
00000340: 5da4 0ebe 4728 473d 46da b2be f0ef ccbd
00000350: c60f 57be 8b39 a9bc bd29 e43a 91e5 6abe
00000360: 337c 94be 89c3 263d cd64 433e 9250 b7be
00000370: 226f ad3c a6e5 873e af43 283e deba a23e
00000380: e4d3 ba3e 0708 873d e919 12be d4e7 4e3e
00000390: 6ba2 ab3d 1164 b5be 147d bcbd 630b 583e
000003a0: b40b a43e 0c36 84be 68a0 2f3d 71ae 623e
000003b0: 4d3e 423e ece3 cdbe f281 863e d161 93be
000003c0: 9d26 1dbc d599 a4bd 2b58 8e3e 0179 683e
000003d0: 196e fabd e418 cfbe b175 0abf 4780 1e3e
000003e0: 61b0 dd3c e624 703d 5c42 0e3f 03a7 a0be
000003f0: 837f 4e3d 94e7 b43c 10d5 48bd fcfb 18be
-0.037564546 0.20412946 0.28736815 -0.2319522 0.70665234 -0.15501449 0.23527835 -0.3047012
-0.016753463 0.6321776 -0.22739974 -0.3108001 -0.032869745 -0.05641546 0.1494798 -1.3097417
0.10259141 0.3768512 0.36438823 0.111997746 -0.15268598 0.4480175 0.54819566 -0.19487244
0.06763066 -0.0077603706 -0.32247904 -0.23724845 0.015920745 -0.7770582 0.007573856 0.22563498
0.1253021 -0.09079329 0.007871251 -0.06663928 -0.15676 -0.21234456 -0.10465409 -0.55489117
0.22879376 -0.019101027 -0.03680889 -0.16184185 0.045303952 -0.071095265 -0.2034662 -0.32546476
-0.15767501 0.13458611 -0.73632294 0.10031597 -0.06862174 0.0871691 0.56609064 -0.068541355
-0.076040864 0.5106132 0.5092041 -0.12750997 0.72619087 0.36270908 -0.0004450527 0.42302588
-0.21827029 -0.11818569 0.061738145 1.1984848 0.18515302 -0.009667007 -0.23954985 -0.028149426
-0.5164017 -0.0653128 0.5844192 0.42784372 -0.30995765 -0.5649164 1.0687896 -0.86740017
-0.5891361 0.16381207 -0.24898638 0.015308073 0.019406458 -0.04416091 0.105552904 -0.009426655
-0.11282241 0.08429668 0.25976065 -0.4825186 0.15893945 0.11344707 0.11558634 0.49976715
0.59835863 -0.054193955 -0.4355323 0.20515375 -0.043893434 -0.116503984 -0.047233492 0.37647343
-0.13955271 0.018927542 -0.48781276 0.056836933 -0.052541498 -0.91403925 0.09923343 -0.42849308
-0.1666934 -0.43196967 0.56938654 0.5308318 0.07461457 -0.12305371 -0.9766283 -0.22239254
-0.013473835 0.39695254 1.1561061 -1.0099759 -0.12734045 -0.11360103 0.009514953 -0.08389213
0.043143958 0.18411228 0.23180349 0.14584169 0.48688555 -0.046459455 -0.24647519 -0.4425265
-0.0059868884 0.37140626 0.25250533 0.028482849 -0.09515038 -0.13464664 -0.022380475 -0.6879925
0.21102089 0.13699128 0.32244086 -0.03614575 -0.19219182 -0.16072518 -0.12368336 -0.12181706
-0.015343881 -0.1994835 -0.1933143 -0.19814953 0.24634148 -0.12018382 0.039739724 0.010010641
0.08497197 0.07082079 0.23873618 -0.082205005 -0.054862265 -0.22522631 -0.00102397 -0.24164416
0.2749284 0.31063676 -0.0860878 0.29507616 -0.15762724 0.10392686 -0.018157769 -0.049271204
-0.13021456 0.271166 -0.5566656 0.44279954 0.20845756 -0.018519532 0.20739123 0.121913284
-0.15082872 0.05894279 0.36477745 0.1639636 0.5725244 0.051867258 0.32448182 -0.004118053
-0.06329931 0.31956017 0.11466633 0.9818909 -0.14640386 -0.12576213 -0.30157208 -0.31217393
-0.38258165 0.25705653 0.50199205 0.3340062 0.2318393 -0.35301253 0.644234 -0.49721217
-0.13929887 0.048622396 -0.34932154 -0.10006702 -0.21002111 -0.020657321 0.0017407459 -0.22939135
-0.29001006 0.04071382 0.19081421 -0.35803658 0.021171156 0.26542395 0.16432069 0.31783193
0.36489785 0.06593328 -0.14267696 0.20205623 0.08380588 -0.35427907 -0.09203544 0.21098094
0.3204018 -0.25822484 0.042877585 0.22136857 0.18969078 -0.40212953 0.26271015 -0.28785565
-0.009591726 -0.08037154 0.27801642 0.2270241 -0.12228031 -0.40448678 -0.5408583 0.15478621
0.027061643 0.05862894 0.55570006 -0.3137742 0.050414573 0.022083081 -0.049031317 -0.14939874

lstm2.weight_hh_l0 f4 [256, 64]
00000000: 5c4e e33c 0fb3 673e 090f 48be 34df 423e
00000010: c131 a13e f0b3 d73d 31c4 cfbc 6be8 a23e
00000020: 180b a2be eead eb3e 67f0 b0be a099 8cbe
00000030: 8b2a 2e3f a812 5bbd bd34 d13c 183b 283e
00000040: 1f53 25bf f738 f9bd 9c90 f23e 7c4c 023e
00000050: 9212 8e3d ceaa 43bd 3617 1e3f 623d 23bf
00000060: e3ea 2b3e c781 2b3f 76e8 463d 7f59 913f
00000070: aab0 033f 4a2d 86be 6d79 fc3b 459e 1a3d
00000080: 95b5 16bb d06b a03e 6857 babd f1cc 3bbe
00000090: 6a94 d0bd 37bc 1abf 6ae8 403f 45ca ee3c
000000a0: 1ccb 4c3f 7f19 0abf ce85 49be 4080 3b3e
000000b0: bba7 813e 5aad 13bf eea2 8abe caed 4bbd
000000c0: f017 86bf 443a 143d 5491 4e3e 2fee c63d
000000d0: bfce c2bc eea3 99be bdce d4be 534a b23d
000000e0: 7057 05be f8b0 fe3d d0bb 0bbf b7ed 46bd
000000f0: a728 50bf e5eb 813f 2d09 e9be 84bf f43e
00000100: 107e de3d d50c 43be 49eb f1bd fdea 11bc
00000110: 59a8 dd3e 572d 75be 960f ecbd be17 ee3d
00000120: 8578 af3d 7ed7 e6be 25ea 2bbe 1634 e6bd
00000130: 8211 81bd 42fb 79bd c803 083f 8a23 dfbe
00000140: a85b 5ebd 6475 73bc fd7c c6be 9522 c03d
00000150: a273 8dbd e2f3 a53d 78c2 2a3e 895f dc3d
00000160: 9cef a0bd fe01 bfbd 0e3e d83d 893a e23e
00000170: 380b c1bd f49e d43e ff47 4f3e 68e8 f23e
00000180: b031 37be 0005 6b3e e70a cc3e 7e41 7cbd
00000190: caed a33c 1063 863e 66fa 993d da78 4abd
000001a0: 69e4 14be 601f c2be 62c9 09be affe be3c
000001b0: c60e 263e a9bc 98be b7ab 293f 32b2 65be
000001c0: 14de 26be 4a5c d33d e577 903e 3fe0 ffbd
000001d0: 8fde 18bf 106e 083f 7e7c 54bd d4ae a4be
000001e0: 19da 8fbc d3a0 49be 45ea 683e ec9b 4abe
000001f0: 22e5 73be cfa5 253e f961 08bf a54d a73e
00000200: 2185 a4be b329 d0bd 17e6 9abd 7e94 5f3e
00000210: c6bb 6dbd 8edf 39be a8da 1cbe 8427 88bd
00000220: bc15 ebbe 9a0d 20be 8216 b43d 0262 9dbe
00000230: 82b6 4e3e 6d6d 8cb9 9ae2 7dbe 0c26 1a3e
00000240: 903e e3be 959b 5abd 22f5 363d 2187 343e
00000250: 6cf4 e4bd 1c51 833c f644 ea3d a659 34be
00000260: e6ea 693e b6f8 093d f37c ecbd dc28 4e3e
00000270: a9ed 11be 7146 68be 1fbb 2c3d 003d 86bd
00000280: 2633 813d 8346 a53e 4d1e a13e 2abd 6ebe
00000290: 136a 173e bb58 b23d 9cab 283e fdec 843e
000002a0: 0677 60bb 0d80 c6bd 9245 c4bd 94aa 513d
000002b0: 09ac f6bb 8b8c f2be 20de 163d 5adf 673d
000002c0: 6622 94bc 077b 1cbd 0c01 2cbd f139 5c3e
000002d0: e88d 643e cd98 95bd 5ebc ab3d 17b3 33be
000002e0: 5d5f d43d 4856 0abd e560 c9be 1851 603e
000002f0: 84bb 603e b8eb cb3d 7cfe 8bbd 970e 11be
00000300: bf33 893e 8760 2abe d10e 523d 5faf 0a3d
00000310: b078 03be dc43 563e 7d15 23be 8c50 1cbe
00000320: 5e9b 9f3e 4a74 96be 33bc 9abe 3139 953e
00000330: 9802 86bd 2c5d 4abe b34e aabc e336 7c3e
00000340: 812a 913e 4bba 37be 38df a6be cc5a a4bd
00000350: 2e98 2c3e 847b 1bbf 2643 013e 4153 0e3e
00000360: bc92 1bbe c8b7 d73d 7b27 953e 0643 013f
00000370: 0bc0 173e bca4 c93d ae7b f4bd 0192 01be
00000380: a66d aebd 8235 30bf 893b babd a6a4 a73d
00000390: 8ffb ca3e 9b0a 8cbe 2068 a3bd 908c 94bb
000003a0: b22c e23d 048e 41bc 3b94 6f3e ac83 21be
000003b0: 01ed 9dbc 3db8 a33e 9773 be3d 23e2 3fbc
000003c0: 485b 833e eaf9 56be 0820 a63d d20b ddbe
000003d0: 4856 89bd a2bc dc3d 53ff 333e 5c27 39be
000003e0: 8b79 073e 4687 fb3d d975 4f3e faf9 1bbe
000003f0: 3a27 05be c95e a3bd 95dd d13d e05d 2c3f
0.027747326 0.22626899 -0.19536985 0.19030458 0.31483272 0.10532367 -0.025362106 0.31817946
-0.3164909 0.46031135 -0.34558412 -0.27460957 0.68033665 -0.05348459 0.025537843 0.16428792
-0.6457996 -0.12169068 0.47375953 0.12724489 0.06937136 -0.047770314 0.6175417 -0.6376554
0.16788821 0.669949 0.048561536 1.1355437 0.5144144 -0.26206428 0.007704905 0.037748594
-0.0022996415 0.31332254 -0.09098703 -0.18339898 -0.10184558 -0.60443443 0.75354636 0.029149184
0.7999742 -0.53945154 -0.19679949 0.18310642 0.2532328 -0.5768639 -0.2707743 -0.04978732
-1.0476055 0.03618838 0.20172626 0.09713399 -0.023780225 -0.3000788 -0.4156398 0.087055825
-0.13021636 0.12436098 -0.54583454 -0.048566546 -0.8131203 1.0150114 -0.45514813 0.47802365
0.10863888 -0.19047864 -0.11812455 -0.008906123 0.43292502 -0.23943077 -0.1152641 0.11625622
0.08567909 -0.45086282 -0.16788538 -0.11240403 -0.063021675 -0.061030634 0.5313077 -0.43581802
-0.05428663 -0.014859531 -0.38767233 0.09381596 -0.06906821 0.081031576 0.16675746 0.107604094
-0.07858202 -0.09326552 0.10558711 0.44185284 -0.09425968 0.41527522 0.20242308 0.47442937
-0.17890048 0.22951126 0.39852068 -0.061585896 0.020010848 0.26247454 0.07518463 -0.04943166
-0.14540257 -0.37914562 -0.13455728 0.023314802 0.16216573 -0.29831436 0.6627764 -0.22431257
-0.16295654 0.10320337 0.28216472 -0.124939434 -0.597146 0.5329294 -0.051876538 -0.32164633
-0.017560052 -0.19690256 0.22745617 -0.19786042 -0.23817876 0.16176532 -0.53274494 0.32676426
-0.3213282 -0.101642035 -0.075634174 0.21833989 -0.058040403 -0.18151686 -0.15317786 -0.06648162
-0.4591502 -0.15630189 0.087933555 -0.30738837 0.20186809 -0.0002678441 -0.24793473 0.15053576
-0.4438367 -0.05337103 0.04466737 0.17629673 -0.11179432 0.016029887 0.114389345 -0.17612323
0.22843513 0.033684455 -0.1154727 0.20132774 -0.14250816 -0.22683121 0.04217064 -0.065546036
0.06308584 0.3228036 0.3146843 -0.23314348 0.14786558 0.0870833 0.16471714 0.25962058
-0.003425063 -0.096923925 -0.09583582 0.051188067 -0.0075278324 -0.4737285 0.03683293 0.05660949
-0.018082809 -0.038203266 -0.041993186 0.21506478 0.22319758 -0.07304535 0.083855376 -0.17548786
0.103697516 -0.03377369 -0.39331737 0.21905935 0.21946532 0.09957069 -0.068356484 -0.14165722
0.26797292 -0.16638385 0.05128366 0.033858653 -0.12839007 0.20924324 -0.15926166 -0.15265101
0.31173223 -0.29385597 -0.3022171 0.29145196 -0.065434635 -0.19762105 -0.02078948 0.24630313
0.2835274 -0.17942159 -0.32592177 -0.08025131 0.16854927 -0.60735345 0.12623271 0.13898946
-0.15192693 0.105331 0.29131684 0.50492895 0.14819352 0.09845874 -0.119376525 -0.12653352
-0.085170075 -0.68831646 -0.09093387 0.08185701 0.3964505 -0.2735184 -0.07978845 -0.004533358
0.11043681 -0.011813644 0.23396389 -0.15772885 -0.019278051 0.319765 0.09299391 -0.01171163
0.2565558 -0.20993772 0.08111578 -0.4317308 -0.0670591 0.10778166 0.17577867 -0.1808142
0.13229959 0.12281661 0.20259799 -0.15232077 -0.13003245 -0.07977063 0.102473415 0.6733074

lstm2.bias_ih_l0 f4 [256]
00000000: ec0e c53e f39f b83e 41c6 8d3d f400 313d
00000010: 77d3 61bd db7c 47be 898e c23d 4ded 393e
00000020: c723 c03c 5810 f43e 4447 093b 2b96 0f3e
00000030: e447 ca3d ecde 64bd b79d 3d3e 193a cbbd
00000040: c97c 2e3e af13 cc3d 53d5 363e 9398 3b3e
00000050: 46a4 3b3e ecad 2d3e 218a d1bd 8c4a 693d
00000060: 752b 1e3e e808 66be 60fd 4c3d d339 fb3d
00000070: cdde dd3c 819c 143d fce5 313c 566f 6dbd
00000080: fea5 5abd 42e1 83be 9cda 683e aa18 b4bd
00000090: cb7a c33e 9e34 693e 8c8b b43c 61e6 f13c
000000a0: dda2 1b3e 0ed5 4e3e afa8 fc3d 86b4 1dbd
000000b0: 31ce bb3c e3bd d53d 8284 4c3e ff84 52be
000000c0: 973a 10bd 86c3 a0bd 006b b6bd 2e8f 1d3e
000000d0: 786d f43a d06d 393d 2249 113e 2d0f 943e
000000e0: 4a96 2fbd 73d1 213d 0efc 3bbe 191e 203d
000000f0: 658d cf3c 07bd 1cbd 1281 8dbd 797a 9a3d
00000100: 108a 263d bf4f b1bd 7882 3b3e 6512 f63d
00000110: 091f 11be d799 2ebc e893 8b3d 90c6 273b
00000120: e979 18be 1694 553d f311 1abe cee1 b23b
00000130: 5b6b 97bd 6875 f4bd bed3 03bd 8f0f 1f3c
00000140: a924 a6bb 74d9 8abd a353 f93d c15f 1cbd
00000150: 71bb e43d c653 37be 3fc4 1fbe 5b91 20bd
00000160: 528d 82bd 9f27 c3bd a015 033d b1bc 29bb
00000170: 326f e53b 448b e33d cb27 153e 8bd2 093e
00000180: 147f c63d d6d0 1abc 3864 913b a5e7 e03c
00000190: e2b4 0ebe df82 523e 45be 1d3e e41a 06be
000001a0: 369f ca3d dcf2 cdbc 911b 593e c56a 783c
000001b0: bab9 e43b e57e e33d 2f9f 81bd c707 19be
000001c0: f3a4 08bc def8 a7bd c5e5 7dbd 6874 b63d
000001d0: 151b 4f3e 32f4 9d3d f38d 003d 3a3c 4c3e
000001e0: f759 0cbd fd1c d9bd 3053 11be c9a4 59bd
000001f0: f852 19be c1e3 5d3d 085b e6bd 17c3 023e
00000200: ea4a 27be 8969 093e d276 513d b626 1c3d
00000210: c7d6 913d ca50 a1bd e8d8 813b 478b 083d
00000220: aa94 463d e280 61be 72f1 ffbd 3e55 65bd
00000230: a459 31bd a6e6 ebbd a360 3d3d 4cad a83d
00000240: da62 a0bb ede3 6d3e b8a5 9bbd 2b04 c1bd
00000250: 1baf a73d 7e2b 723b a007 473c 99bd f13d
00000260: 410b 05bd 6e0b debd 39a5 b53c cd4d 3a3e
00000270: 784e aa3d 8797 393e a8a5 223c 3e1f 71bd
00000280: 818d 1fbd b4aa 613d ed04 193e 1a1d 75bc
00000290: cbc0 033d add9 e23d f899 3ebd 10eb 0e3e
000002a0: b095 4cbb b794 06bd 4d1f e3bc 8614 aebd
000002b0: 1315 383e 093d 943d 9511 acbd 660c 4dbe
000002c0: 43ea 283e 81e7 0fbd 7add 52bd ad14 c0bd
000002d0: b320 5b3b de8c 0c3e f87e d6bd 1b3d 2abc
000002e0: 647d 4f3e 18ca a13c 359d b23c 94c3 cbbd
000002f0: ffd2 94bd bf0b 5cbe e45d fc3d 1957 993d
00000300: 8e60 043f a9de 8b3e 4470 133e c03b b2bd
00000310: 48ff 8ebd b8c8 b7bd f8a7 223e 33ca 913d
00000320: c7b6 21be a25f 953e fee8 27be 9aed be3c
00000330: 8b62 713d 17a0 6b3d 3f3f c73d 7c27 aa3d
00000340: 6d8e 1b3e 1497 5d3b 5890 503e 6a4d 363e
00000350: 1709 2b3e f929 493e 1631 54bc d6cf 293e
00000360: 2e98 693e fdbe a8bc 12a0 6e3e b557 8c3e
00000370: d1bd 203c 65d8 7a3e 15e5 f33b 5209 f83b
00000380: 01b6 e9bc 2e54 ab3c 476c 343e 6dea 9cbc
00000390: 6778 0b3e 8862 863d b9f7 98bd 89aa 7ebd
000003a0: 345e 2c3e 1ac8 fd3d cec3 9fbd 4883 853d
000003b0: 9b80 153d c2ab 7b3e 73e3 8c3e 9479 4abc
000003c0: 9d68 bf3e d3b1 b13d 9197 cb3c f9dd dfbd
000003d0: 8ebd 753e 0587 ac3e 89fe efbc 7b32 413e
000003e0: 69d2 613c 356e 963c 535c 2d3d f152 b93d
000003f0: 5668 d53d 589c f73d 2d09 bb3d 4fd9 903c
0.38487947 0.36059532 0.069225796 0.0432138 -0.05513331 -0.19481222 0.09499843 0.1815693
0.02345456 0.4766872 0.0020947019 0.14022128 0.09876993 -0.055876657 0.18517195 -0.099231906
0.1703979 0.09964692 0.17854814 0.18319921 0.18324384 0.16960877 -0.10231424 0.05695586
0.15446265 -0.22464335 0.050046325 0.122668885 0.027083779 0.036282066 0.010858055 -0.057967506
-0.05338096 -0.25757796 0.22739643 -0.08793767 0.3817962 0.22773978 0.022039197 0.029528799
0.15198846 0.20198461 0.12336861 -0.03850224 0.022925468 0.10436609 0.19972423 -0.20558546
-0.035212126 -0.07849793 -0.089071274 0.1538665 0.0018648347 0.04527074 0.14188054 0.28917828
-0.042867936 0.039506387 -0.1835787 0.039091203 0.025335977 -0.038266208 -0.06909384 0.07542891
0.04065901 -0.086577885 0.18311489 0.12015227 -0.14171995 -0.010656795 0.0681532 0.002560053
-0.14890255 0.05214318 -0.1504591 0.005459047 -0.07393523 -0.11936456 -0.032184355 0.009708299
-0.005070288 -0.06779757 0.121741556 -0.038177256 0.11168564 -0.17903051 -0.15602206 -0.03920112
-0.06374611 -0.095290415 0.032003045 -0.0025899822 0.007001781 0.11110547 0.14565961 0.13459222
0.09692207 -0.009449204 0.004436996 0.027454207 -0.13936189 0.20557736 0.15404613 -0.13096195
0.09893648 -0.025140218 0.21201922 0.015162175 0.006980148 0.111081876 -0.0632919 -0.14944373
-0.008340108 -0.082017645 -0.061986703 0.089089215 0.20225175 0.07712592 0.031385373 0.1994485
-0.034265485 -0.10601232 -0.1419189 -0.053135667 -0.14973056 0.05417228 -0.112478316 0.12769733
-0.16337171 0.13419165 0.051138707 0.038122855 0.07121044 -0.078767374 0.003962625 0.03333595
0.04848162 -0.22021821 -0.12497224 -0.055989496 -0.04329838 -0.11518602 0.046234738 0.08236179
-0.0048945965 0.23231478 -0.07599968 -0.09424623 0.081876956 0.0036952193 0.012147814 0.11803741
-0.032481436 -0.10842024 0.02217351 0.18193741 0.08315748 0.1812421 0.009927191 -0.058867685
-0.038953308 0.055094436 0.14943285 -0.014960552 0.032166284 0.110766746 -0.046533555 0.13956857
-0.003121715 -0.03285667 -0.027724886 -0.08500008 0.17976789 0.07238204 -0.08401791 -0.20024261
0.16495614 -0.03513289 -0.051480748 -0.093789436 0.0033436238 0.13725612 -0.10473436 -0.010390545
0.20262676 0.019749686 0.021803478 -0.09949413 -0.07266807 -0.21488856 0.12322596 0.07487316
0.5170983 0.27318314 0.14398295 -0.08702803 -0.06982285 -0.08973831 0.15884387 0.071186446
-0.1579238 0.29174525 -0.16397473 0.023306657 0.05893187 0.05752572 0.0972886 0.08308312
0.1519105 0.0033811973 0.20367563 0.17802969 0.16702686 0.19644918 -0.012951156 0.1658319
0.22811958 -0.020598883 0.2330325 0.27410665 0.009810881 0.2449661 0.00744308 0.0075694704
-0.028529169 0.020914163 0.1761943 -0.019154752 0.13620149 0.06561762 -0.07469124 -0.062174354
0.1683281 0.12391682 -0.07801019 0.065191805 0.0364996 0.24577239 0.2751728 -0.012358088
0.373845 0.086764954 0.024852546 -0.1093101 0.2399809 0.33696762 -0.029296177 0.18866913
0.013783076 0.018363098 0.042324375 0.09049023 0.10420291 0.12090367 0.091326095 0.017681746

lstm2.bias_hh_l0 f4 [256]
00000000: 689f 933e 8b63 a13e eb76 d23d b9d7 af3d
00000010: b6e1 dcbd df28 a9bd df19 bdbc e647 283d
00000020: ee30 d23b 484b d73e df45 c6bc 3ea3 833d
00000030: ffee 1e3e ccbd 6bbc 63be 93bc a7d7 b5bd
00000040: a0ca f93d e633 b0ba f9e4 843e 95ac 333e
00000050: 642b d13b 6430 063e ce7c 53bd 5977 0b3e
00000060: 4b98 223e 1694 4bbd 4e43 7d3e dca0 323e
00000070: e7c4 cdbd f750 0f3e bf9b 913d a567 e53d
00000080: bc06 073e f32c f3bd 097e a13e cef4 e8bb
00000090: ba2f 6c3e c7ef cd3c 1737 593d 4bd4 753d
000000a0: d567 373e 3355 603d cdbe 233e d242 26bc
000000b0: 54cb a1bd 1c87 843c b020 8b3d d86f c13c
000000c0: 94a1 073b 7492 1eb9 ebea 603d c65a 1a3e
000000d0: b032 4c3c 428c 663e 2c90 0fbd 0211 423e
000000e0: 491c e5bc fadb b4bd 1a57 58be a66c 423e
000000f0: 7176 883d bdb2 99bd b893 69bd 9381 e93d
00000100: d53a c7bc 21af 38bc 0aa3 023e 2a8a 3d3c
00000110: 64ec 04be f3d3 78be 1b03 963b 6370 b73d
00000120: bd39 cbbd bf9e 4d3e be6d 79bd fa58 d4bd
00000130: c388 bb3d 84d4 1dbe 3636 053d 0a16 8b3d
00000140: c490 3a3d 5ee4 4a3c 970b 8e3d 78c1 00be
00000150: 2cee ff3d 3970 30bd 4c75 853c ef99 31ba
00000160: 01b5 7ebb a94a 0ebe 9ad0 7dbd f7be 88bd
00000170: 2739 843b f68f 4abc 7a17 cd3c 60e1 ad3b
00000180: dfe9 1b3e e20e c03d 34c9 0e3d 4716 193d
00000190: be4c 2fbe b43c b73d 81c2 e93d 1cb8 3e3d
000001a0: dc80 84bd 451e 53bd 02f9 823d 810a 053e
000001b0: 3f15 113e 038f 3c3d d112 15bc d622 48bb
000001c0: 08ed 273d 846f 093d b47b 22bd dafd e03d
000001d0: 21cb 523e 828d d03d 9662 50bd 4053 b33d
000001e0: a66a aa3d 6b7f 00be 5668 193d b735 c13d
000001f0: 7a06 f2bc f628 e73b f31a 00bd be5a 50bd
00000200: 204f 79bd 4321 093e 245b 8abd e0ff 2a3d
00000210: 9f2f 1dbd d60e d7bd 9c5c af3d 8950 613d
00000220: 5a33 99bd 606a 55be 4a50 0fbd f772 bbbb
00000230: a6ca 0bbe 0692 fe3c e610 97bd 107e 8bbd
00000240: cde5 e83d 9d83 263e 28cb 993d 952d c9bd
00000250: feaa 6b3d f99a b63d 1902 723d 4557 7b3d
00000260: b4ae 9dbd 3211 bdbd 856b bfbd 5d5b 753e
00000270: 1581 95bc a6d0 053b f0aa 4f3d 1ac2 893d
00000280: 8680 a3bd ef75 9e3c 259f 9c3d 3195 e2bd
00000290: 7970 923d 9309 853b 58a1 febd e996 86bd
000002a0: 42d2 c6bd b50e fcbd 2e47 1bbe 0903 073d
000002b0: 8686 fc3d a578 c8bc 9f23 85bd a97f f2bd
000002c0: b758 8b3d 4b5e 6b3d 9537 223e 1bef c43d
000002d0: 1b29 debd 2006 d13c a90b 31be ddb1 2c3d
000002e0: 4f5c 213d e4ed 053e 345c 23be 1645 fdbb
000002f0: a937 c3bd 477e 0bbe d445 85bd 68c1 033e
00000300: 7ee8 e83e 85a1 2d3e ae4c 673d 5db5 bdb9
00000310: c4be 8cbd e43b efbd 8afe 393e 880c 77bc
00000320: 91f4 42be b6e6 b23e 0963 71bd 0de7 043e
00000330: 1572 4a3e 34bb aa3d 85df df3d 0341 883d
00000340: 0234 ab3e 35d3 0cbd 670f 803e de4e 583e
00000350: 8c02 a13e e3c2 bb3e c843 3fbc 84ce 633e
00000360: 66ee 623e 80e3 533e 8ef7 9a3e 8c9f 393e
00000370: 1a94 b33d 1fe8 7c3e 5b59 d4bd bbeb ac3c
00000380: 9065 3abd cd3f ff3d 0f39 f93d 1618 583d
00000390: 83f1 4f3e db21 263e 5818 553d 14c1 183d
000003a0: 7a9e 4a3e 7a05 163e 2201 bfbd fb3f a03d
000003b0: 8f40 38bd 8d03 983e 9f73 013e 29cd ccbd
000003c0: 3341 6f3e 6955 abbd f7d9 32be 7b21 983d
000003d0: 7e45 683d 8c6a eb3d 8b93 c1bd 8b65 5f3e
000003e0: 681d fd3b 8c7e 223e 0e40 863c a7ee 233e
000003f0: 9548 333d 6f62 1f3e 7767 ad3d a9f7 b83d
0.28832555 0.31521258 0.10276588 0.08586068 -0.107852384 -0.08259749 -0.023083625 0.041084193
0.0064145243 0.42049623 -0.024203239 0.0642762 0.15520857 -0.014388513 -0.01803512 -0.08879023
0.12196851 -0.0013443201 0.25955942 0.17546304 0.0063833464 0.13104397 -0.051632695 0.13619746
0.15878408 -0.049701773 0.24732706 0.17444175 -0.10047322 0.1399573 0.07109784 0.11201409
0.13186163 -0.11873808 0.3154147 -0.007109261 0.23065081 0.025138749 0.053031053 0.06001691
0.17910703 0.054768752 0.15990753 -0.010147767 -0.0790011 0.016177706 0.06793344 0.023612902
0.0020695673 -0.00015122612 0.054911535 0.1507369 0.012463257 0.22514442 -0.035049602 0.189518
-0.027967589 -0.0883102 -0.21126977 0.18986759 0.06663216 -0.07504795 -0.05702564 0.114016674
-0.024320045 -0.011272223 0.12757507 0.011568585 -0.12980801 -0.24299602 0.004578007 0.08956983
-0.09923122 0.20080088 -0.060895674 -0.103685334 0.091569446 -0.154131 0.032522403 0.06791313
0.045548216 0.012383549 0.06935804 -0.12573802 0.124965996 -0.043075774 0.016291283 -0.0006774952
-0.003886521 -0.13895668 -0.061966516 -0.06677049 0.0040351334 -0.0123634245 0.025035609 0.005306408
0.15225933 0.09377839 0.03485985 0.03737476 -0.17119119 0.08947125 0.11414052 0.0465623
-0.064698905 -0.05154254 0.06395151 0.12992288 0.14168261 0.046034824 -0.009098724 -0.0030538342
0.040997535 0.033553615 -0.039668754 0.10985918 0.205853 0.101832405 -0.05087527 0.08756113
0.08321123 -0.12548606 0.037453018 0.094340734 -0.029544104 0.0070544435 -0.0312757 -0.05086779
-0.060866475 0.13391595 -0.06755665 0.041747928 -0.038375493 -0.105008766 0.08562586 0.055008445
-0.07480498 -0.2084136 -0.03498868 -0.005720492 -0.13651523 0.031075489 -0.0737627 -0.06811154
0.11371956 0.16261144 0.07509452 -0.09823147 0.057536118 0.089162774 0.05908403 0.061362524
-0.076993376 -0.09231795 -0.093466796 0.23960634 -0.018250028 0.0020418554 0.050700128 0.06726475
-0.07983498 0.019343344 0.07647542 -0.11063612 0.07150359 0.004059979 -0.12433118 -0.065717526
-0.09708072 -0.12307493 -0.15163872 0.03296188 0.12330346 -0.02447159 -0.06500935 -0.118407555
0.068040304 0.05746297 0.15841515 0.09615918 -0.10847684 0.025515616 -0.17289604 0.04216181
0.039394673 0.1307903 -0.15953141 -0.007729183 -0.09532101 -0.1362239 -0.06507459 0.12866747
0.45489877 0.16956146 0.05646961 -0.00036184015 -0.06872323 -0.11681345 0.18163505 -0.015078671
-0.19038607 0.34941643 -0.058932338 0.12978764 0.19770081 0.083364874 0.10931305 0.06653025
0.33438116 -0.03438111 0.2501175 0.21123835 0.31447256 0.36672124 -0.011673875 0.22246748
0.22161254 0.20692253 0.30266994 0.18127269 0.087684825 0.24697922 -0.10368606 0.021108499
-0.045507014 0.12463341 0.12169086 0.052757345 0.20306973 0.16223852 0.05202517 0.03729351
0.19787017 0.14650527 -0.09326388 0.07824703 -0.044983443 0.2969021 0.12641762 -0.10000069
0.23364715 -0.083659 -0.1746596 0.07428261 0.056706898 0.114949316 -0.0945197 0.2181608
0.0077244528 0.15868586 0.016387966 0.16009007 0.04377039 0.15564893 0.08467 0.090316124
